node {
  name: "global_step/Initializer/zeros"
  op: "Const"
  attr {
    key: "_class"
    value {
      list {
        s: "loc:@global_step"
      }
    }
  }
  attr {
    key: "_output_shapes"
    value {
      list {
        shape {
        }
      }
    }
  }
  attr {
    key: "dtype"
    value {
      type: DT_INT64
    }
  }
  attr {
    key: "value"
    value {
      tensor {
        dtype: DT_INT64
        tensor_shape {
        }
        int64_val: 0
      }
    }
  }
}
node {
  name: "global_step"
  op: "VariableV2"
  device: "/device:CPU:0"
  attr {
    key: "_class"
    value {
      list {
        s: "loc:@global_step"
      }
    }
  }
  attr {
    key: "_output_shapes"
    value {
      list {
        shape {
        }
      }
    }
  }
  attr {
    key: "container"
    value {
      s: ""
    }
  }
  attr {
    key: "dtype"
    value {
      type: DT_INT64
    }
  }
  attr {
    key: "shape"
    value {
      shape {
      }
    }
  }
  attr {
    key: "shared_name"
    value {
      s: ""
    }
  }
}
node {
  name: "global_step/Assign"
  op: "Assign"
  input: "global_step"
  input: "global_step/Initializer/zeros"
  device: "/device:CPU:0"
  attr {
    key: "T"
    value {
      type: DT_INT64
    }
  }
  attr {
    key: "_class"
    value {
      list {
        s: "loc:@global_step"
      }
    }
  }
  attr {
    key: "_output_shapes"
    value {
      list {
        shape {
        }
      }
    }
  }
  attr {
    key: "use_locking"
    value {
      b: true
    }
  }
  attr {
    key: "validate_shape"
    value {
      b: true
    }
  }
}
node {
  name: "global_step/read"
  op: "Identity"
  input: "global_step"
  device: "/device:CPU:0"
  attr {
    key: "T"
    value {
      type: DT_INT64
    }
  }
  attr {
    key: "_class"
    value {
      list {
        s: "loc:@global_step"
      }
    }
  }
  attr {
    key: "_output_shapes"
    value {
      list {
        shape {
        }
      }
    }
  }
}
node {
  name: "pascalvoc_2007_data_provider/parallel_read/filenames/Const"
  op: "Const"
  device: "/device:CPU:0"
  attr {
    key: "_output_shapes"
    value {
      list {
        shape {
          dim {
            size: 200
          }
        }
      }
    }
  }
  attr {
    key: "dtype"
    value {
      type: DT_STRING
    }
  }
  attr {
    key: "value"
    value {
      tensor {
        dtype: DT_STRING
        tensor_shape {
          dim {
            size: 200
          }
        }
        string_val: ".\\tfrecords\\voc_2007_train_000.tfrecord"
        string_val: ".\\tfrecords\\voc_2007_train_001.tfrecord"
        string_val: ".\\tfrecords\\voc_2007_train_002.tfrecord"
        string_val: ".\\tfrecords\\voc_2007_train_003.tfrecord"
        string_val: ".\\tfrecords\\voc_2007_train_004.tfrecord"
        string_val: ".\\tfrecords\\voc_2007_train_005.tfrecord"
        string_val: ".\\tfrecords\\voc_2007_train_006.tfrecord"
        string_val: ".\\tfrecords\\voc_2007_train_007.tfrecord"
        string_val: ".\\tfrecords\\voc_2007_train_008.tfrecord"
        string_val: ".\\tfrecords\\voc_2007_train_009.tfrecord"
        string_val: ".\\tfrecords\\voc_2007_train_010.tfrecord"
        string_val: ".\\tfrecords\\voc_2007_train_011.tfrecord"
        string_val: ".\\tfrecords\\voc_2007_train_012.tfrecord"
        string_val: ".\\tfrecords\\voc_2007_train_013.tfrecord"
        string_val: ".\\tfrecords\\voc_2007_train_014.tfrecord"
        string_val: ".\\tfrecords\\voc_2007_train_015.tfrecord"
        string_val: ".\\tfrecords\\voc_2007_train_016.tfrecord"
        string_val: ".\\tfrecords\\voc_2007_train_017.tfrecord"
        string_val: ".\\tfrecords\\voc_2007_train_018.tfrecord"
        string_val: ".\\tfrecords\\voc_2007_train_019.tfrecord"
        string_val: ".\\tfrecords\\voc_2007_train_020.tfrecord"
        string_val: ".\\tfrecords\\voc_2007_train_021.tfrecord"
        string_val: ".\\tfrecords\\voc_2007_train_022.tfrecord"
        string_val: ".\\tfrecords\\voc_2007_train_023.tfrecord"
        string_val: ".\\tfrecords\\voc_2007_train_024.tfrecord"
        string_val: ".\\tfrecords\\voc_2007_train_025.tfrecord"
        string_val: ".\\tfrecords\\voc_2007_train_026.tfrecord"
        string_val: ".\\tfrecords\\voc_2007_train_027.tfrecord"
        string_val: ".\\tfrecords\\voc_2007_train_028.tfrecord"
        string_val: ".\\tfrecords\\voc_2007_train_029.tfrecord"
        string_val: ".\\tfrecords\\voc_2007_train_030.tfrecord"
        string_val: ".\\tfrecords\\voc_2007_train_031.tfrecord"
        string_val: ".\\tfrecords\\voc_2007_train_032.tfrecord"
        string_val: ".\\tfrecords\\voc_2007_train_033.tfrecord"
        string_val: ".\\tfrecords\\voc_2007_train_034.tfrecord"
        string_val: ".\\tfrecords\\voc_2007_train_035.tfrecord"
        string_val: ".\\tfrecords\\voc_2007_train_036.tfrecord"
        string_val: ".\\tfrecords\\voc_2007_train_037.tfrecord"
        string_val: ".\\tfrecords\\voc_2007_train_038.tfrecord"
        string_val: ".\\tfrecords\\voc_2007_train_039.tfrecord"
        string_val: ".\\tfrecords\\voc_2007_train_040.tfrecord"
        string_val: ".\\tfrecords\\voc_2007_train_041.tfrecord"
        string_val: ".\\tfrecords\\voc_2007_train_042.tfrecord"
        string_val: ".\\tfrecords\\voc_2007_train_043.tfrecord"
        string_val: ".\\tfrecords\\voc_2007_train_044.tfrecord"
        string_val: ".\\tfrecords\\voc_2007_train_045.tfrecord"
        string_val: ".\\tfrecords\\voc_2007_train_046.tfrecord"
        string_val: ".\\tfrecords\\voc_2007_train_047.tfrecord"
        string_val: ".\\tfrecords\\voc_2007_train_048.tfrecord"
        string_val: ".\\tfrecords\\voc_2007_train_049.tfrecord"
        string_val: ".\\tfrecords\\voc_2007_train_050.tfrecord"
        string_val: ".\\tfrecords\\voc_2007_train_051.tfrecord"
        string_val: ".\\tfrecords\\voc_2007_train_052.tfrecord"
        string_val: ".\\tfrecords\\voc_2007_train_053.tfrecord"
        string_val: ".\\tfrecords\\voc_2007_train_054.tfrecord"
        string_val: ".\\tfrecords\\voc_2007_train_055.tfrecord"
        string_val: ".\\tfrecords\\voc_2007_train_056.tfrecord"
        string_val: ".\\tfrecords\\voc_2007_train_057.tfrecord"
        string_val: ".\\tfrecords\\voc_2007_train_058.tfrecord"
        string_val: ".\\tfrecords\\voc_2007_train_059.tfrecord"
        string_val: ".\\tfrecords\\voc_2007_train_060.tfrecord"
        string_val: ".\\tfrecords\\voc_2007_train_061.tfrecord"
        string_val: ".\\tfrecords\\voc_2007_train_062.tfrecord"
        string_val: ".\\tfrecords\\voc_2007_train_063.tfrecord"
        string_val: ".\\tfrecords\\voc_2007_train_064.tfrecord"
        string_val: ".\\tfrecords\\voc_2007_train_065.tfrecord"
        string_val: ".\\tfrecords\\voc_2007_train_066.tfrecord"
        string_val: ".\\tfrecords\\voc_2007_train_067.tfrecord"
        string_val: ".\\tfrecords\\voc_2007_train_068.tfrecord"
        string_val: ".\\tfrecords\\voc_2007_train_069.tfrecord"
        string_val: ".\\tfrecords\\voc_2007_train_070.tfrecord"
        string_val: ".\\tfrecords\\voc_2007_train_071.tfrecord"
        string_val: ".\\tfrecords\\voc_2007_train_072.tfrecord"
        string_val: ".\\tfrecords\\voc_2007_train_073.tfrecord"
        string_val: ".\\tfrecords\\voc_2007_train_074.tfrecord"
        string_val: ".\\tfrecords\\voc_2007_train_075.tfrecord"
        string_val: ".\\tfrecords\\voc_2007_train_076.tfrecord"
        string_val: ".\\tfrecords\\voc_2007_train_077.tfrecord"
        string_val: ".\\tfrecords\\voc_2007_train_078.tfrecord"
        string_val: ".\\tfrecords\\voc_2007_train_079.tfrecord"
        string_val: ".\\tfrecords\\voc_2007_train_080.tfrecord"
        string_val: ".\\tfrecords\\voc_2007_train_081.tfrecord"
        string_val: ".\\tfrecords\\voc_2007_train_082.tfrecord"
        string_val: ".\\tfrecords\\voc_2007_train_083.tfrecord"
        string_val: ".\\tfrecords\\voc_2007_train_084.tfrecord"
        string_val: ".\\tfrecords\\voc_2007_train_085.tfrecord"
        string_val: ".\\tfrecords\\voc_2007_train_086.tfrecord"
        string_val: ".\\tfrecords\\voc_2007_train_087.tfrecord"
        string_val: ".\\tfrecords\\voc_2007_train_088.tfrecord"
        string_val: ".\\tfrecords\\voc_2007_train_089.tfrecord"
        string_val: ".\\tfrecords\\voc_2007_train_090.tfrecord"
        string_val: ".\\tfrecords\\voc_2007_train_091.tfrecord"
        string_val: ".\\tfrecords\\voc_2007_train_092.tfrecord"
        string_val: ".\\tfrecords\\voc_2007_train_093.tfrecord"
        string_val: ".\\tfrecords\\voc_2007_train_094.tfrecord"
        string_val: ".\\tfrecords\\voc_2007_train_095.tfrecord"
        string_val: ".\\tfrecords\\voc_2007_train_096.tfrecord"
        string_val: ".\\tfrecords\\voc_2007_train_097.tfrecord"
        string_val: ".\\tfrecords\\voc_2007_train_098.tfrecord"
        string_val: ".\\tfrecords\\voc_2007_train_099.tfrecord"
        string_val: ".\\tfrecords\\voc_2007_train_100.tfrecord"
        string_val: ".\\tfrecords\\voc_2007_train_101.tfrecord"
        string_val: ".\\tfrecords\\voc_2007_train_102.tfrecord"
        string_val: ".\\tfrecords\\voc_2007_train_103.tfrecord"
        string_val: ".\\tfrecords\\voc_2007_train_104.tfrecord"
        string_val: ".\\tfrecords\\voc_2007_train_105.tfrecord"
        string_val: ".\\tfrecords\\voc_2007_train_106.tfrecord"
        string_val: ".\\tfrecords\\voc_2007_train_107.tfrecord"
        string_val: ".\\tfrecords\\voc_2007_train_108.tfrecord"
        string_val: ".\\tfrecords\\voc_2007_train_109.tfrecord"
        string_val: ".\\tfrecords\\voc_2007_train_110.tfrecord"
        string_val: ".\\tfrecords\\voc_2007_train_111.tfrecord"
        string_val: ".\\tfrecords\\voc_2007_train_112.tfrecord"
        string_val: ".\\tfrecords\\voc_2007_train_113.tfrecord"
        string_val: ".\\tfrecords\\voc_2007_train_114.tfrecord"
        string_val: ".\\tfrecords\\voc_2007_train_115.tfrecord"
        string_val: ".\\tfrecords\\voc_2007_train_116.tfrecord"
        string_val: ".\\tfrecords\\voc_2007_train_117.tfrecord"
        string_val: ".\\tfrecords\\voc_2007_train_118.tfrecord"
        string_val: ".\\tfrecords\\voc_2007_train_119.tfrecord"
        string_val: ".\\tfrecords\\voc_2007_train_120.tfrecord"
        string_val: ".\\tfrecords\\voc_2007_train_121.tfrecord"
        string_val: ".\\tfrecords\\voc_2007_train_122.tfrecord"
        string_val: ".\\tfrecords\\voc_2007_train_123.tfrecord"
        string_val: ".\\tfrecords\\voc_2007_train_124.tfrecord"
        string_val: ".\\tfrecords\\voc_2007_train_125.tfrecord"
        string_val: ".\\tfrecords\\voc_2007_train_126.tfrecord"
        string_val: ".\\tfrecords\\voc_2007_train_127.tfrecord"
        string_val: ".\\tfrecords\\voc_2007_train_128.tfrecord"
        string_val: ".\\tfrecords\\voc_2007_train_129.tfrecord"
        string_val: ".\\tfrecords\\voc_2007_train_130.tfrecord"
        string_val: ".\\tfrecords\\voc_2007_train_131.tfrecord"
        string_val: ".\\tfrecords\\voc_2007_train_132.tfrecord"
        string_val: ".\\tfrecords\\voc_2007_train_133.tfrecord"
        string_val: ".\\tfrecords\\voc_2007_train_134.tfrecord"
        string_val: ".\\tfrecords\\voc_2007_train_135.tfrecord"
        string_val: ".\\tfrecords\\voc_2007_train_136.tfrecord"
        string_val: ".\\tfrecords\\voc_2007_train_137.tfrecord"
        string_val: ".\\tfrecords\\voc_2007_train_138.tfrecord"
        string_val: ".\\tfrecords\\voc_2007_train_139.tfrecord"
        string_val: ".\\tfrecords\\voc_2007_train_140.tfrecord"
        string_val: ".\\tfrecords\\voc_2007_train_141.tfrecord"
        string_val: ".\\tfrecords\\voc_2007_train_142.tfrecord"
        string_val: ".\\tfrecords\\voc_2007_train_143.tfrecord"
        string_val: ".\\tfrecords\\voc_2007_train_144.tfrecord"
        string_val: ".\\tfrecords\\voc_2007_train_145.tfrecord"
        string_val: ".\\tfrecords\\voc_2007_train_146.tfrecord"
        string_val: ".\\tfrecords\\voc_2007_train_147.tfrecord"
        string_val: ".\\tfrecords\\voc_2007_train_148.tfrecord"
        string_val: ".\\tfrecords\\voc_2007_train_149.tfrecord"
        string_val: ".\\tfrecords\\voc_2007_train_150.tfrecord"
        string_val: ".\\tfrecords\\voc_2007_train_151.tfrecord"
        string_val: ".\\tfrecords\\voc_2007_train_152.tfrecord"
        string_val: ".\\tfrecords\\voc_2007_train_153.tfrecord"
        string_val: ".\\tfrecords\\voc_2007_train_154.tfrecord"
        string_val: ".\\tfrecords\\voc_2007_train_155.tfrecord"
        string_val: ".\\tfrecords\\voc_2007_train_156.tfrecord"
        string_val: ".\\tfrecords\\voc_2007_train_157.tfrecord"
        string_val: ".\\tfrecords\\voc_2007_train_158.tfrecord"
        string_val: ".\\tfrecords\\voc_2007_train_159.tfrecord"
        string_val: ".\\tfrecords\\voc_2007_train_160.tfrecord"
        string_val: ".\\tfrecords\\voc_2007_train_161.tfrecord"
        string_val: ".\\tfrecords\\voc_2007_train_162.tfrecord"
        string_val: ".\\tfrecords\\voc_2007_train_163.tfrecord"
        string_val: ".\\tfrecords\\voc_2007_train_164.tfrecord"
        string_val: ".\\tfrecords\\voc_2007_train_165.tfrecord"
        string_val: ".\\tfrecords\\voc_2007_train_166.tfrecord"
        string_val: ".\\tfrecords\\voc_2007_train_167.tfrecord"
        string_val: ".\\tfrecords\\voc_2007_train_168.tfrecord"
        string_val: ".\\tfrecords\\voc_2007_train_169.tfrecord"
        string_val: ".\\tfrecords\\voc_2007_train_170.tfrecord"
        string_val: ".\\tfrecords\\voc_2007_train_171.tfrecord"
        string_val: ".\\tfrecords\\voc_2007_train_172.tfrecord"
        string_val: ".\\tfrecords\\voc_2007_train_173.tfrecord"
        string_val: ".\\tfrecords\\voc_2007_train_174.tfrecord"
        string_val: ".\\tfrecords\\voc_2007_train_175.tfrecord"
        string_val: ".\\tfrecords\\voc_2007_train_176.tfrecord"
        string_val: ".\\tfrecords\\voc_2007_train_177.tfrecord"
        string_val: ".\\tfrecords\\voc_2007_train_178.tfrecord"
        string_val: ".\\tfrecords\\voc_2007_train_179.tfrecord"
        string_val: ".\\tfrecords\\voc_2007_train_180.tfrecord"
        string_val: ".\\tfrecords\\voc_2007_train_181.tfrecord"
        string_val: ".\\tfrecords\\voc_2007_train_182.tfrecord"
        string_val: ".\\tfrecords\\voc_2007_train_183.tfrecord"
        string_val: ".\\tfrecords\\voc_2007_train_184.tfrecord"
        string_val: ".\\tfrecords\\voc_2007_train_185.tfrecord"
        string_val: ".\\tfrecords\\voc_2007_train_186.tfrecord"
        string_val: ".\\tfrecords\\voc_2007_train_187.tfrecord"
        string_val: ".\\tfrecords\\voc_2007_train_188.tfrecord"
        string_val: ".\\tfrecords\\voc_2007_train_189.tfrecord"
        string_val: ".\\tfrecords\\voc_2007_train_190.tfrecord"
        string_val: ".\\tfrecords\\voc_2007_train_191.tfrecord"
        string_val: ".\\tfrecords\\voc_2007_train_192.tfrecord"
        string_val: ".\\tfrecords\\voc_2007_train_193.tfrecord"
        string_val: ".\\tfrecords\\voc_2007_train_194.tfrecord"
        string_val: ".\\tfrecords\\voc_2007_train_195.tfrecord"
        string_val: ".\\tfrecords\\voc_2007_train_196.tfrecord"
        string_val: ".\\tfrecords\\voc_2007_train_197.tfrecord"
        string_val: ".\\tfrecords\\voc_2007_train_198.tfrecord"
        string_val: ".\\tfrecords\\voc_2007_train_199.tfrecord"
      }
    }
  }
}
node {
  name: "pascalvoc_2007_data_provider/parallel_read/filenames/Size"
  op: "Const"
  device: "/device:CPU:0"
  attr {
    key: "_output_shapes"
    value {
      list {
        shape {
        }
      }
    }
  }
  attr {
    key: "dtype"
    value {
      type: DT_INT32
    }
  }
  attr {
    key: "value"
    value {
      tensor {
        dtype: DT_INT32
        tensor_shape {
        }
        int_val: 200
      }
    }
  }
}
node {
  name: "pascalvoc_2007_data_provider/parallel_read/filenames/Greater/y"
  op: "Const"
  device: "/device:CPU:0"
  attr {
    key: "_output_shapes"
    value {
      list {
        shape {
        }
      }
    }
  }
  attr {
    key: "dtype"
    value {
      type: DT_INT32
    }
  }
  attr {
    key: "value"
    value {
      tensor {
        dtype: DT_INT32
        tensor_shape {
        }
        int_val: 0
      }
    }
  }
}
node {
  name: "pascalvoc_2007_data_provider/parallel_read/filenames/Greater"
  op: "Greater"
  input: "pascalvoc_2007_data_provider/parallel_read/filenames/Size"
  input: "pascalvoc_2007_data_provider/parallel_read/filenames/Greater/y"
  device: "/device:CPU:0"
  attr {
    key: "T"
    value {
      type: DT_INT32
    }
  }
  attr {
    key: "_output_shapes"
    value {
      list {
        shape {
        }
      }
    }
  }
}
node {
  name: "pascalvoc_2007_data_provider/parallel_read/filenames/Assert/Const"
  op: "Const"
  device: "/device:CPU:0"
  attr {
    key: "_output_shapes"
    value {
      list {
        shape {
        }
      }
    }
  }
  attr {
    key: "dtype"
    value {
      type: DT_STRING
    }
  }
  attr {
    key: "value"
    value {
      tensor {
        dtype: DT_STRING
        tensor_shape {
        }
        string_val: "string_input_producer requires a non-null input tensor"
      }
    }
  }
}
node {
  name: "pascalvoc_2007_data_provider/parallel_read/filenames/Assert/Assert/data_0"
  op: "Const"
  device: "/device:CPU:0"
  attr {
    key: "_output_shapes"
    value {
      list {
        shape {
        }
      }
    }
  }
  attr {
    key: "dtype"
    value {
      type: DT_STRING
    }
  }
  attr {
    key: "value"
    value {
      tensor {
        dtype: DT_STRING
        tensor_shape {
        }
        string_val: "string_input_producer requires a non-null input tensor"
      }
    }
  }
}
node {
  name: "pascalvoc_2007_data_provider/parallel_read/filenames/Assert/Assert"
  op: "Assert"
  input: "pascalvoc_2007_data_provider/parallel_read/filenames/Greater"
  input: "pascalvoc_2007_data_provider/parallel_read/filenames/Assert/Assert/data_0"
  device: "/device:CPU:0"
  attr {
    key: "T"
    value {
      list {
        type: DT_STRING
      }
    }
  }
  attr {
    key: "summarize"
    value {
      i: 3
    }
  }
}
node {
  name: "pascalvoc_2007_data_provider/parallel_read/filenames/Identity"
  op: "Identity"
  input: "pascalvoc_2007_data_provider/parallel_read/filenames/Const"
  input: "^pascalvoc_2007_data_provider/parallel_read/filenames/Assert/Assert"
  device: "/device:CPU:0"
  attr {
    key: "T"
    value {
      type: DT_STRING
    }
  }
  attr {
    key: "_output_shapes"
    value {
      list {
        shape {
          dim {
            size: 200
          }
        }
      }
    }
  }
}
node {
  name: "pascalvoc_2007_data_provider/parallel_read/filenames/RandomShuffle"
  op: "RandomShuffle"
  input: "pascalvoc_2007_data_provider/parallel_read/filenames/Identity"
  device: "/device:CPU:0"
  attr {
    key: "T"
    value {
      type: DT_STRING
    }
  }
  attr {
    key: "_output_shapes"
    value {
      list {
        shape {
          dim {
            size: 200
          }
        }
      }
    }
  }
  attr {
    key: "seed"
    value {
      i: 0
    }
  }
  attr {
    key: "seed2"
    value {
      i: 0
    }
  }
}
node {
  name: "pascalvoc_2007_data_provider/parallel_read/filenames"
  op: "FIFOQueueV2"
  device: "/device:CPU:0"
  attr {
    key: "_output_shapes"
    value {
      list {
        shape {
        }
      }
    }
  }
  attr {
    key: "capacity"
    value {
      i: 32
    }
  }
  attr {
    key: "component_types"
    value {
      list {
        type: DT_STRING
      }
    }
  }
  attr {
    key: "container"
    value {
      s: ""
    }
  }
  attr {
    key: "shapes"
    value {
      list {
        shape {
        }
      }
    }
  }
  attr {
    key: "shared_name"
    value {
      s: ""
    }
  }
}
node {
  name: "pascalvoc_2007_data_provider/parallel_read/filenames/filenames_EnqueueMany"
  op: "QueueEnqueueManyV2"
  input: "pascalvoc_2007_data_provider/parallel_read/filenames"
  input: "pascalvoc_2007_data_provider/parallel_read/filenames/RandomShuffle"
  device: "/device:CPU:0"
  attr {
    key: "Tcomponents"
    value {
      list {
        type: DT_STRING
      }
    }
  }
  attr {
    key: "timeout_ms"
    value {
      i: -1
    }
  }
}
node {
  name: "pascalvoc_2007_data_provider/parallel_read/filenames/filenames_Close"
  op: "QueueCloseV2"
  input: "pascalvoc_2007_data_provider/parallel_read/filenames"
  device: "/device:CPU:0"
  attr {
    key: "cancel_pending_enqueues"
    value {
      b: false
    }
  }
}
node {
  name: "pascalvoc_2007_data_provider/parallel_read/filenames/filenames_Close_1"
  op: "QueueCloseV2"
  input: "pascalvoc_2007_data_provider/parallel_read/filenames"
  device: "/device:CPU:0"
  attr {
    key: "cancel_pending_enqueues"
    value {
      b: true
    }
  }
}
node {
  name: "pascalvoc_2007_data_provider/parallel_read/filenames/filenames_Size"
  op: "QueueSizeV2"
  input: "pascalvoc_2007_data_provider/parallel_read/filenames"
  device: "/device:CPU:0"
  attr {
    key: "_output_shapes"
    value {
      list {
        shape {
        }
      }
    }
  }
}
node {
  name: "pascalvoc_2007_data_provider/parallel_read/filenames/ToFloat"
  op: "Cast"
  input: "pascalvoc_2007_data_provider/parallel_read/filenames/filenames_Size"
  device: "/device:CPU:0"
  attr {
    key: "DstT"
    value {
      type: DT_FLOAT
    }
  }
  attr {
    key: "SrcT"
    value {
      type: DT_INT32
    }
  }
  attr {
    key: "Truncate"
    value {
      b: false
    }
  }
  attr {
    key: "_output_shapes"
    value {
      list {
        shape {
        }
      }
    }
  }
}
node {
  name: "pascalvoc_2007_data_provider/parallel_read/filenames/mul/y"
  op: "Const"
  device: "/device:CPU:0"
  attr {
    key: "_output_shapes"
    value {
      list {
        shape {
        }
      }
    }
  }
  attr {
    key: "dtype"
    value {
      type: DT_FLOAT
    }
  }
  attr {
    key: "value"
    value {
      tensor {
        dtype: DT_FLOAT
        tensor_shape {
        }
        float_val: 0.03125
      }
    }
  }
}
node {
  name: "pascalvoc_2007_data_provider/parallel_read/filenames/mul"
  op: "Mul"
  input: "pascalvoc_2007_data_provider/parallel_read/filenames/ToFloat"
  input: "pascalvoc_2007_data_provider/parallel_read/filenames/mul/y"
  device: "/device:CPU:0"
  attr {
    key: "T"
    value {
      type: DT_FLOAT
    }
  }
  attr {
    key: "_output_shapes"
    value {
      list {
        shape {
        }
      }
    }
  }
}
node {
  name: "pascalvoc_2007_data_provider/parallel_read/filenames/fraction_of_32_full/tags"
  op: "Const"
  device: "/device:CPU:0"
  attr {
    key: "_output_shapes"
    value {
      list {
        shape {
        }
      }
    }
  }
  attr {
    key: "dtype"
    value {
      type: DT_STRING
    }
  }
  attr {
    key: "value"
    value {
      tensor {
        dtype: DT_STRING
        tensor_shape {
        }
        string_val: "pascalvoc_2007_data_provider/parallel_read/filenames/fraction_of_32_full"
      }
    }
  }
}
node {
  name: "pascalvoc_2007_data_provider/parallel_read/filenames/fraction_of_32_full"
  op: "ScalarSummary"
  input: "pascalvoc_2007_data_provider/parallel_read/filenames/fraction_of_32_full/tags"
  input: "pascalvoc_2007_data_provider/parallel_read/filenames/mul"
  device: "/device:CPU:0"
  attr {
    key: "T"
    value {
      type: DT_FLOAT
    }
  }
  attr {
    key: "_output_shapes"
    value {
      list {
        shape {
        }
      }
    }
  }
}
node {
  name: "pascalvoc_2007_data_provider/parallel_read/common_queue"
  op: "RandomShuffleQueueV2"
  device: "/device:CPU:0"
  attr {
    key: "_output_shapes"
    value {
      list {
        shape {
        }
      }
    }
  }
  attr {
    key: "capacity"
    value {
      i: 160
    }
  }
  attr {
    key: "component_types"
    value {
      list {
        type: DT_STRING
        type: DT_STRING
      }
    }
  }
  attr {
    key: "container"
    value {
      s: ""
    }
  }
  attr {
    key: "min_after_dequeue"
    value {
      i: 80
    }
  }
  attr {
    key: "seed"
    value {
      i: 0
    }
  }
  attr {
    key: "seed2"
    value {
      i: 0
    }
  }
  attr {
    key: "shapes"
    value {
      list {
      }
    }
  }
  attr {
    key: "shared_name"
    value {
      s: ""
    }
  }
}
node {
  name: "pascalvoc_2007_data_provider/parallel_read/common_queue_Size"
  op: "QueueSizeV2"
  input: "pascalvoc_2007_data_provider/parallel_read/common_queue"
  device: "/device:CPU:0"
  attr {
    key: "_output_shapes"
    value {
      list {
        shape {
        }
      }
    }
  }
}
node {
  name: "pascalvoc_2007_data_provider/parallel_read/ToFloat"
  op: "Cast"
  input: "pascalvoc_2007_data_provider/parallel_read/common_queue_Size"
  device: "/device:CPU:0"
  attr {
    key: "DstT"
    value {
      type: DT_FLOAT
    }
  }
  attr {
    key: "SrcT"
    value {
      type: DT_INT32
    }
  }
  attr {
    key: "Truncate"
    value {
      b: false
    }
  }
  attr {
    key: "_output_shapes"
    value {
      list {
        shape {
        }
      }
    }
  }
}
node {
  name: "pascalvoc_2007_data_provider/parallel_read/mul/y"
  op: "Const"
  device: "/device:CPU:0"
  attr {
    key: "_output_shapes"
    value {
      list {
        shape {
        }
      }
    }
  }
  attr {
    key: "dtype"
    value {
      type: DT_FLOAT
    }
  }
  attr {
    key: "value"
    value {
      tensor {
        dtype: DT_FLOAT
        tensor_shape {
        }
        float_val: 0.0062500001
      }
    }
  }
}
node {
  name: "pascalvoc_2007_data_provider/parallel_read/mul"
  op: "Mul"
  input: "pascalvoc_2007_data_provider/parallel_read/ToFloat"
  input: "pascalvoc_2007_data_provider/parallel_read/mul/y"
  device: "/device:CPU:0"
  attr {
    key: "T"
    value {
      type: DT_FLOAT
    }
  }
  attr {
    key: "_output_shapes"
    value {
      list {
        shape {
        }
      }
    }
  }
}
node {
  name: "pascalvoc_2007_data_provider/parallel_read/fraction_of_160_full/tags"
  op: "Const"
  device: "/device:CPU:0"
  attr {
    key: "_output_shapes"
    value {
      list {
        shape {
        }
      }
    }
  }
  attr {
    key: "dtype"
    value {
      type: DT_STRING
    }
  }
  attr {
    key: "value"
    value {
      tensor {
        dtype: DT_STRING
        tensor_shape {
        }
        string_val: "pascalvoc_2007_data_provider/parallel_read/fraction_of_160_full"
      }
    }
  }
}
node {
  name: "pascalvoc_2007_data_provider/parallel_read/fraction_of_160_full"
  op: "ScalarSummary"
  input: "pascalvoc_2007_data_provider/parallel_read/fraction_of_160_full/tags"
  input: "pascalvoc_2007_data_provider/parallel_read/mul"
  device: "/device:CPU:0"
  attr {
    key: "T"
    value {
      type: DT_FLOAT
    }
  }
  attr {
    key: "_output_shapes"
    value {
      list {
        shape {
        }
      }
    }
  }
}
node {
  name: "pascalvoc_2007_data_provider/parallel_read/TFRecordReaderV2"
  op: "TFRecordReaderV2"
  device: "/device:CPU:0"
  attr {
    key: "_output_shapes"
    value {
      list {
        shape {
        }
      }
    }
  }
  attr {
    key: "compression_type"
    value {
      s: ""
    }
  }
  attr {
    key: "container"
    value {
      s: ""
    }
  }
  attr {
    key: "shared_name"
    value {
      s: ""
    }
  }
}
node {
  name: "pascalvoc_2007_data_provider/parallel_read/TFRecordReaderV2_1"
  op: "TFRecordReaderV2"
  device: "/device:CPU:0"
  attr {
    key: "_output_shapes"
    value {
      list {
        shape {
        }
      }
    }
  }
  attr {
    key: "compression_type"
    value {
      s: ""
    }
  }
  attr {
    key: "container"
    value {
      s: ""
    }
  }
  attr {
    key: "shared_name"
    value {
      s: ""
    }
  }
}
node {
  name: "pascalvoc_2007_data_provider/parallel_read/TFRecordReaderV2_2"
  op: "TFRecordReaderV2"
  device: "/device:CPU:0"
  attr {
    key: "_output_shapes"
    value {
      list {
        shape {
        }
      }
    }
  }
  attr {
    key: "compression_type"
    value {
      s: ""
    }
  }
  attr {
    key: "container"
    value {
      s: ""
    }
  }
  attr {
    key: "shared_name"
    value {
      s: ""
    }
  }
}
node {
  name: "pascalvoc_2007_data_provider/parallel_read/TFRecordReaderV2_3"
  op: "TFRecordReaderV2"
  device: "/device:CPU:0"
  attr {
    key: "_output_shapes"
    value {
      list {
        shape {
        }
      }
    }
  }
  attr {
    key: "compression_type"
    value {
      s: ""
    }
  }
  attr {
    key: "container"
    value {
      s: ""
    }
  }
  attr {
    key: "shared_name"
    value {
      s: ""
    }
  }
}
node {
  name: "pascalvoc_2007_data_provider/parallel_read/ReaderReadV2"
  op: "ReaderReadV2"
  input: "pascalvoc_2007_data_provider/parallel_read/TFRecordReaderV2"
  input: "pascalvoc_2007_data_provider/parallel_read/filenames"
  device: "/device:CPU:0"
  attr {
    key: "_output_shapes"
    value {
      list {
        shape {
        }
        shape {
        }
      }
    }
  }
}
node {
  name: "pascalvoc_2007_data_provider/parallel_read/common_queue_enqueue"
  op: "QueueEnqueueV2"
  input: "pascalvoc_2007_data_provider/parallel_read/common_queue"
  input: "pascalvoc_2007_data_provider/parallel_read/ReaderReadV2"
  input: "pascalvoc_2007_data_provider/parallel_read/ReaderReadV2:1"
  device: "/device:CPU:0"
  attr {
    key: "Tcomponents"
    value {
      list {
        type: DT_STRING
        type: DT_STRING
      }
    }
  }
  attr {
    key: "timeout_ms"
    value {
      i: -1
    }
  }
}
node {
  name: "pascalvoc_2007_data_provider/parallel_read/ReaderReadV2_1"
  op: "ReaderReadV2"
  input: "pascalvoc_2007_data_provider/parallel_read/TFRecordReaderV2_1"
  input: "pascalvoc_2007_data_provider/parallel_read/filenames"
  device: "/device:CPU:0"
  attr {
    key: "_output_shapes"
    value {
      list {
        shape {
        }
        shape {
        }
      }
    }
  }
}
node {
  name: "pascalvoc_2007_data_provider/parallel_read/common_queue_enqueue_1"
  op: "QueueEnqueueV2"
  input: "pascalvoc_2007_data_provider/parallel_read/common_queue"
  input: "pascalvoc_2007_data_provider/parallel_read/ReaderReadV2_1"
  input: "pascalvoc_2007_data_provider/parallel_read/ReaderReadV2_1:1"
  device: "/device:CPU:0"
  attr {
    key: "Tcomponents"
    value {
      list {
        type: DT_STRING
        type: DT_STRING
      }
    }
  }
  attr {
    key: "timeout_ms"
    value {
      i: -1
    }
  }
}
node {
  name: "pascalvoc_2007_data_provider/parallel_read/ReaderReadV2_2"
  op: "ReaderReadV2"
  input: "pascalvoc_2007_data_provider/parallel_read/TFRecordReaderV2_2"
  input: "pascalvoc_2007_data_provider/parallel_read/filenames"
  device: "/device:CPU:0"
  attr {
    key: "_output_shapes"
    value {
      list {
        shape {
        }
        shape {
        }
      }
    }
  }
}
node {
  name: "pascalvoc_2007_data_provider/parallel_read/common_queue_enqueue_2"
  op: "QueueEnqueueV2"
  input: "pascalvoc_2007_data_provider/parallel_read/common_queue"
  input: "pascalvoc_2007_data_provider/parallel_read/ReaderReadV2_2"
  input: "pascalvoc_2007_data_provider/parallel_read/ReaderReadV2_2:1"
  device: "/device:CPU:0"
  attr {
    key: "Tcomponents"
    value {
      list {
        type: DT_STRING
        type: DT_STRING
      }
    }
  }
  attr {
    key: "timeout_ms"
    value {
      i: -1
    }
  }
}
node {
  name: "pascalvoc_2007_data_provider/parallel_read/ReaderReadV2_3"
  op: "ReaderReadV2"
  input: "pascalvoc_2007_data_provider/parallel_read/TFRecordReaderV2_3"
  input: "pascalvoc_2007_data_provider/parallel_read/filenames"
  device: "/device:CPU:0"
  attr {
    key: "_output_shapes"
    value {
      list {
        shape {
        }
        shape {
        }
      }
    }
  }
}
node {
  name: "pascalvoc_2007_data_provider/parallel_read/common_queue_enqueue_3"
  op: "QueueEnqueueV2"
  input: "pascalvoc_2007_data_provider/parallel_read/common_queue"
  input: "pascalvoc_2007_data_provider/parallel_read/ReaderReadV2_3"
  input: "pascalvoc_2007_data_provider/parallel_read/ReaderReadV2_3:1"
  device: "/device:CPU:0"
  attr {
    key: "Tcomponents"
    value {
      list {
        type: DT_STRING
        type: DT_STRING
      }
    }
  }
  attr {
    key: "timeout_ms"
    value {
      i: -1
    }
  }
}
node {
  name: "pascalvoc_2007_data_provider/parallel_read/common_queue_Close"
  op: "QueueCloseV2"
  input: "pascalvoc_2007_data_provider/parallel_read/common_queue"
  device: "/device:CPU:0"
  attr {
    key: "cancel_pending_enqueues"
    value {
      b: false
    }
  }
}
node {
  name: "pascalvoc_2007_data_provider/parallel_read/common_queue_Close_1"
  op: "QueueCloseV2"
  input: "pascalvoc_2007_data_provider/parallel_read/common_queue"
  device: "/device:CPU:0"
  attr {
    key: "cancel_pending_enqueues"
    value {
      b: true
    }
  }
}
node {
  name: "pascalvoc_2007_data_provider/parallel_read/common_queue_Dequeue"
  op: "QueueDequeueV2"
  input: "pascalvoc_2007_data_provider/parallel_read/common_queue"
  device: "/device:CPU:0"
  attr {
    key: "_output_shapes"
    value {
      list {
        shape {
          unknown_rank: true
        }
        shape {
          unknown_rank: true
        }
      }
    }
  }
  attr {
    key: "component_types"
    value {
      list {
        type: DT_STRING
        type: DT_STRING
      }
    }
  }
  attr {
    key: "timeout_ms"
    value {
      i: -1
    }
  }
}
node {
  name: "pascalvoc_2007_data_provider/ParseSingleExample/Const"
  op: "Const"
  device: "/device:CPU:0"
  attr {
    key: "_output_shapes"
    value {
      list {
        shape {
          dim {
          }
        }
      }
    }
  }
  attr {
    key: "dtype"
    value {
      type: DT_INT64
    }
  }
  attr {
    key: "value"
    value {
      tensor {
        dtype: DT_INT64
        tensor_shape {
          dim {
          }
        }
      }
    }
  }
}
node {
  name: "pascalvoc_2007_data_provider/ParseSingleExample/key_image/encoded"
  op: "Const"
  device: "/device:CPU:0"
  attr {
    key: "_output_shapes"
    value {
      list {
        shape {
        }
      }
    }
  }
  attr {
    key: "dtype"
    value {
      type: DT_STRING
    }
  }
  attr {
    key: "value"
    value {
      tensor {
        dtype: DT_STRING
        tensor_shape {
        }
        string_val: ""
      }
    }
  }
}
node {
  name: "pascalvoc_2007_data_provider/ParseSingleExample/Reshape/shape"
  op: "Const"
  device: "/device:CPU:0"
  attr {
    key: "_output_shapes"
    value {
      list {
        shape {
          dim {
          }
        }
      }
    }
  }
  attr {
    key: "dtype"
    value {
      type: DT_INT32
    }
  }
  attr {
    key: "value"
    value {
      tensor {
        dtype: DT_INT32
        tensor_shape {
          dim {
          }
        }
      }
    }
  }
}
node {
  name: "pascalvoc_2007_data_provider/ParseSingleExample/Reshape"
  op: "Reshape"
  input: "pascalvoc_2007_data_provider/ParseSingleExample/key_image/encoded"
  input: "pascalvoc_2007_data_provider/ParseSingleExample/Reshape/shape"
  device: "/device:CPU:0"
  attr {
    key: "T"
    value {
      type: DT_STRING
    }
  }
  attr {
    key: "Tshape"
    value {
      type: DT_INT32
    }
  }
  attr {
    key: "_output_shapes"
    value {
      list {
        shape {
        }
      }
    }
  }
}
node {
  name: "pascalvoc_2007_data_provider/ParseSingleExample/key_image/format"
  op: "Const"
  device: "/device:CPU:0"
  attr {
    key: "_output_shapes"
    value {
      list {
        shape {
        }
      }
    }
  }
  attr {
    key: "dtype"
    value {
      type: DT_STRING
    }
  }
  attr {
    key: "value"
    value {
      tensor {
        dtype: DT_STRING
        tensor_shape {
        }
        string_val: "jpeg"
      }
    }
  }
}
node {
  name: "pascalvoc_2007_data_provider/ParseSingleExample/Reshape_1/shape"
  op: "Const"
  device: "/device:CPU:0"
  attr {
    key: "_output_shapes"
    value {
      list {
        shape {
          dim {
          }
        }
      }
    }
  }
  attr {
    key: "dtype"
    value {
      type: DT_INT32
    }
  }
  attr {
    key: "value"
    value {
      tensor {
        dtype: DT_INT32
        tensor_shape {
          dim {
          }
        }
      }
    }
  }
}
node {
  name: "pascalvoc_2007_data_provider/ParseSingleExample/Reshape_1"
  op: "Reshape"
  input: "pascalvoc_2007_data_provider/ParseSingleExample/key_image/format"
  input: "pascalvoc_2007_data_provider/ParseSingleExample/Reshape_1/shape"
  device: "/device:CPU:0"
  attr {
    key: "T"
    value {
      type: DT_STRING
    }
  }
  attr {
    key: "Tshape"
    value {
      type: DT_INT32
    }
  }
  attr {
    key: "_output_shapes"
    value {
      list {
        shape {
        }
      }
    }
  }
}
node {
  name: "pascalvoc_2007_data_provider/ParseSingleExample/Const_1"
  op: "Const"
  device: "/device:CPU:0"
  attr {
    key: "_output_shapes"
    value {
      list {
        shape {
          dim {
          }
        }
      }
    }
  }
  attr {
    key: "dtype"
    value {
      type: DT_INT64
    }
  }
  attr {
    key: "value"
    value {
      tensor {
        dtype: DT_INT64
        tensor_shape {
          dim {
          }
        }
      }
    }
  }
}
node {
  name: "pascalvoc_2007_data_provider/ParseSingleExample/Const_2"
  op: "Const"
  device: "/device:CPU:0"
  attr {
    key: "_output_shapes"
    value {
      list {
        shape {
          dim {
          }
        }
      }
    }
  }
  attr {
    key: "dtype"
    value {
      type: DT_INT64
    }
  }
  attr {
    key: "value"
    value {
      tensor {
        dtype: DT_INT64
        tensor_shape {
          dim {
          }
        }
      }
    }
  }
}
node {
  name: "pascalvoc_2007_data_provider/ParseSingleExample/Const_3"
  op: "Const"
  device: "/device:CPU:0"
  attr {
    key: "_output_shapes"
    value {
      list {
        shape {
          dim {
          }
        }
      }
    }
  }
  attr {
    key: "dtype"
    value {
      type: DT_INT64
    }
  }
  attr {
    key: "value"
    value {
      tensor {
        dtype: DT_INT64
        tensor_shape {
          dim {
          }
        }
      }
    }
  }
}
node {
  name: "pascalvoc_2007_data_provider/ParseSingleExample/ParseSingleExample"
  op: "ParseSingleExample"
  input: "pascalvoc_2007_data_provider/parallel_read/common_queue_Dequeue:1"
  input: "pascalvoc_2007_data_provider/ParseSingleExample/Const"
  input: "pascalvoc_2007_data_provider/ParseSingleExample/Reshape"
  input: "pascalvoc_2007_data_provider/ParseSingleExample/Reshape_1"
  input: "pascalvoc_2007_data_provider/ParseSingleExample/Const_1"
  input: "pascalvoc_2007_data_provider/ParseSingleExample/Const_2"
  input: "pascalvoc_2007_data_provider/ParseSingleExample/Const_3"
  device: "/device:CPU:0"
  attr {
    key: "Tdense"
    value {
      list {
        type: DT_INT64
        type: DT_STRING
        type: DT_STRING
        type: DT_INT64
        type: DT_INT64
        type: DT_INT64
      }
    }
  }
  attr {
    key: "_output_shapes"
    value {
      list {
        shape {
          dim {
            size: -1
          }
          dim {
            size: 1
          }
        }
        shape {
          dim {
            size: -1
          }
          dim {
            size: 1
          }
        }
        shape {
          dim {
            size: -1
          }
          dim {
            size: 1
          }
        }
        shape {
          dim {
            size: -1
          }
          dim {
            size: 1
          }
        }
        shape {
          dim {
            size: -1
          }
          dim {
            size: 1
          }
        }
        shape {
          dim {
            size: -1
          }
          dim {
            size: 1
          }
        }
        shape {
          dim {
            size: -1
          }
          dim {
            size: 1
          }
        }
        shape {
          dim {
            size: -1
          }
        }
        shape {
          dim {
            size: -1
          }
        }
        shape {
          dim {
            size: -1
          }
        }
        shape {
          dim {
            size: -1
          }
        }
        shape {
          dim {
            size: -1
          }
        }
        shape {
          dim {
            size: -1
          }
        }
        shape {
          dim {
            size: -1
          }
        }
        shape {
          dim {
            size: 1
          }
        }
        shape {
          dim {
            size: 1
          }
        }
        shape {
          dim {
            size: 1
          }
        }
        shape {
          dim {
            size: 1
          }
        }
        shape {
          dim {
            size: 1
          }
        }
        shape {
          dim {
            size: 1
          }
        }
        shape {
          dim {
            size: 1
          }
        }
        shape {
          dim {
            size: 1
          }
        }
        shape {
        }
        shape {
        }
        shape {
          dim {
            size: 1
          }
        }
        shape {
          dim {
            size: 3
          }
        }
        shape {
          dim {
            size: 1
          }
        }
      }
    }
  }
  attr {
    key: "dense_keys"
    value {
      list {
        s: "image/channels"
        s: "image/encoded"
        s: "image/format"
        s: "image/height"
        s: "image/shape"
        s: "image/width"
      }
    }
  }
  attr {
    key: "dense_shapes"
    value {
      list {
        shape {
          dim {
            size: 1
          }
        }
        shape {
        }
        shape {
        }
        shape {
          dim {
            size: 1
          }
        }
        shape {
          dim {
            size: 3
          }
        }
        shape {
          dim {
            size: 1
          }
        }
      }
    }
  }
  attr {
    key: "num_sparse"
    value {
      i: 7
    }
  }
  attr {
    key: "sparse_keys"
    value {
      list {
        s: "image/object/bbox/Difficult"
        s: "image/object/bbox/label"
        s: "image/object/bbox/truncated"
        s: "image/object/bbox/xmax"
        s: "image/object/bbox/xmin"
        s: "image/object/bbox/ymax"
        s: "image/object/bbox/ymin"
      }
    }
  }
  attr {
    key: "sparse_types"
    value {
      list {
        type: DT_INT64
        type: DT_INT64
        type: DT_INT64
        type: DT_FLOAT
        type: DT_FLOAT
        type: DT_FLOAT
        type: DT_FLOAT
      }
    }
  }
}
node {
  name: "pascalvoc_2007_data_provider/Reshape/shape"
  op: "Const"
  device: "/device:CPU:0"
  attr {
    key: "_output_shapes"
    value {
      list {
        shape {
          dim {
            size: 1
          }
        }
      }
    }
  }
  attr {
    key: "dtype"
    value {
      type: DT_INT32
    }
  }
  attr {
    key: "value"
    value {
      tensor {
        dtype: DT_INT32
        tensor_shape {
          dim {
            size: 1
          }
        }
        int_val: 1
      }
    }
  }
}
node {
  name: "pascalvoc_2007_data_provider/Reshape"
  op: "Reshape"
  input: "pascalvoc_2007_data_provider/ParseSingleExample/ParseSingleExample:21"
  input: "pascalvoc_2007_data_provider/Reshape/shape"
  device: "/device:CPU:0"
  attr {
    key: "T"
    value {
      type: DT_INT64
    }
  }
  attr {
    key: "Tshape"
    value {
      type: DT_INT32
    }
  }
  attr {
    key: "_output_shapes"
    value {
      list {
        shape {
          dim {
            size: 1
          }
        }
      }
    }
  }
}
node {
  name: "pascalvoc_2007_data_provider/Reshape_1/shape"
  op: "Const"
  device: "/device:CPU:0"
  attr {
    key: "_output_shapes"
    value {
      list {
        shape {
          dim {
          }
        }
      }
    }
  }
  attr {
    key: "dtype"
    value {
      type: DT_INT32
    }
  }
  attr {
    key: "value"
    value {
      tensor {
        dtype: DT_INT32
        tensor_shape {
          dim {
          }
        }
      }
    }
  }
}
node {
  name: "pascalvoc_2007_data_provider/Reshape_1"
  op: "Reshape"
  input: "pascalvoc_2007_data_provider/ParseSingleExample/ParseSingleExample:22"
  input: "pascalvoc_2007_data_provider/Reshape_1/shape"
  device: "/device:CPU:0"
  attr {
    key: "T"
    value {
      type: DT_STRING
    }
  }
  attr {
    key: "Tshape"
    value {
      type: DT_INT32
    }
  }
  attr {
    key: "_output_shapes"
    value {
      list {
        shape {
        }
      }
    }
  }
}
node {
  name: "pascalvoc_2007_data_provider/Reshape_2/shape"
  op: "Const"
  device: "/device:CPU:0"
  attr {
    key: "_output_shapes"
    value {
      list {
        shape {
          dim {
          }
        }
      }
    }
  }
  attr {
    key: "dtype"
    value {
      type: DT_INT32
    }
  }
  attr {
    key: "value"
    value {
      tensor {
        dtype: DT_INT32
        tensor_shape {
          dim {
          }
        }
      }
    }
  }
}
node {
  name: "pascalvoc_2007_data_provider/Reshape_2"
  op: "Reshape"
  input: "pascalvoc_2007_data_provider/ParseSingleExample/ParseSingleExample:23"
  input: "pascalvoc_2007_data_provider/Reshape_2/shape"
  device: "/device:CPU:0"
  attr {
    key: "T"
    value {
      type: DT_STRING
    }
  }
  attr {
    key: "Tshape"
    value {
      type: DT_INT32
    }
  }
  attr {
    key: "_output_shapes"
    value {
      list {
        shape {
        }
      }
    }
  }
}
node {
  name: "pascalvoc_2007_data_provider/Reshape_3/shape"
  op: "Const"
  device: "/device:CPU:0"
  attr {
    key: "_output_shapes"
    value {
      list {
        shape {
          dim {
            size: 1
          }
        }
      }
    }
  }
  attr {
    key: "dtype"
    value {
      type: DT_INT32
    }
  }
  attr {
    key: "value"
    value {
      tensor {
        dtype: DT_INT32
        tensor_shape {
          dim {
            size: 1
          }
        }
        int_val: 1
      }
    }
  }
}
node {
  name: "pascalvoc_2007_data_provider/Reshape_3"
  op: "Reshape"
  input: "pascalvoc_2007_data_provider/ParseSingleExample/ParseSingleExample:24"
  input: "pascalvoc_2007_data_provider/Reshape_3/shape"
  device: "/device:CPU:0"
  attr {
    key: "T"
    value {
      type: DT_INT64
    }
  }
  attr {
    key: "Tshape"
    value {
      type: DT_INT32
    }
  }
  attr {
    key: "_output_shapes"
    value {
      list {
        shape {
          dim {
            size: 1
          }
        }
      }
    }
  }
}
node {
  name: "pascalvoc_2007_data_provider/Reshape_4/shape"
  op: "Const"
  device: "/device:CPU:0"
  attr {
    key: "_output_shapes"
    value {
      list {
        shape {
          dim {
            size: 1
          }
        }
      }
    }
  }
  attr {
    key: "dtype"
    value {
      type: DT_INT32
    }
  }
  attr {
    key: "value"
    value {
      tensor {
        dtype: DT_INT32
        tensor_shape {
          dim {
            size: 1
          }
        }
        int_val: 3
      }
    }
  }
}
node {
  name: "pascalvoc_2007_data_provider/Reshape_4"
  op: "Reshape"
  input: "pascalvoc_2007_data_provider/ParseSingleExample/ParseSingleExample:25"
  input: "pascalvoc_2007_data_provider/Reshape_4/shape"
  device: "/device:CPU:0"
  attr {
    key: "T"
    value {
      type: DT_INT64
    }
  }
  attr {
    key: "Tshape"
    value {
      type: DT_INT32
    }
  }
  attr {
    key: "_output_shapes"
    value {
      list {
        shape {
          dim {
            size: 3
          }
        }
      }
    }
  }
}
node {
  name: "pascalvoc_2007_data_provider/Reshape_5/shape"
  op: "Const"
  device: "/device:CPU:0"
  attr {
    key: "_output_shapes"
    value {
      list {
        shape {
          dim {
            size: 1
          }
        }
      }
    }
  }
  attr {
    key: "dtype"
    value {
      type: DT_INT32
    }
  }
  attr {
    key: "value"
    value {
      tensor {
        dtype: DT_INT32
        tensor_shape {
          dim {
            size: 1
          }
        }
        int_val: 1
      }
    }
  }
}
node {
  name: "pascalvoc_2007_data_provider/Reshape_5"
  op: "Reshape"
  input: "pascalvoc_2007_data_provider/ParseSingleExample/ParseSingleExample:26"
  input: "pascalvoc_2007_data_provider/Reshape_5/shape"
  device: "/device:CPU:0"
  attr {
    key: "T"
    value {
      type: DT_INT64
    }
  }
  attr {
    key: "Tshape"
    value {
      type: DT_INT32
    }
  }
  attr {
    key: "_output_shapes"
    value {
      list {
        shape {
          dim {
            size: 1
          }
        }
      }
    }
  }
}
node {
  name: "pascalvoc_2007_data_provider/SparseToDense/default_value"
  op: "Const"
  device: "/device:CPU:0"
  attr {
    key: "_output_shapes"
    value {
      list {
        shape {
        }
      }
    }
  }
  attr {
    key: "dtype"
    value {
      type: DT_INT64
    }
  }
  attr {
    key: "value"
    value {
      tensor {
        dtype: DT_INT64
        tensor_shape {
        }
        int64_val: 0
      }
    }
  }
}
node {
  name: "pascalvoc_2007_data_provider/SparseToDense"
  op: "SparseToDense"
  input: "pascalvoc_2007_data_provider/ParseSingleExample/ParseSingleExample:1"
  input: "pascalvoc_2007_data_provider/ParseSingleExample/ParseSingleExample:15"
  input: "pascalvoc_2007_data_provider/ParseSingleExample/ParseSingleExample:8"
  input: "pascalvoc_2007_data_provider/SparseToDense/default_value"
  device: "/device:CPU:0"
  attr {
    key: "T"
    value {
      type: DT_INT64
    }
  }
  attr {
    key: "Tindices"
    value {
      type: DT_INT64
    }
  }
  attr {
    key: "_output_shapes"
    value {
      list {
        shape {
          dim {
            size: -1
          }
        }
      }
    }
  }
  attr {
    key: "validate_indices"
    value {
      b: true
    }
  }
}
node {
  name: "pascalvoc_2007_data_provider/Equal/y"
  op: "Const"
  device: "/device:CPU:0"
  attr {
    key: "_output_shapes"
    value {
      list {
        shape {
        }
      }
    }
  }
  attr {
    key: "dtype"
    value {
      type: DT_STRING
    }
  }
  attr {
    key: "value"
    value {
      tensor {
        dtype: DT_STRING
        tensor_shape {
        }
        string_val: "raw"
      }
    }
  }
}
node {
  name: "pascalvoc_2007_data_provider/Equal"
  op: "Equal"
  input: "pascalvoc_2007_data_provider/Reshape_2"
  input: "pascalvoc_2007_data_provider/Equal/y"
  device: "/device:CPU:0"
  attr {
    key: "T"
    value {
      type: DT_STRING
    }
  }
  attr {
    key: "_output_shapes"
    value {
      list {
        shape {
        }
      }
    }
  }
}
node {
  name: "pascalvoc_2007_data_provider/Equal_1/y"
  op: "Const"
  device: "/device:CPU:0"
  attr {
    key: "_output_shapes"
    value {
      list {
        shape {
        }
      }
    }
  }
  attr {
    key: "dtype"
    value {
      type: DT_STRING
    }
  }
  attr {
    key: "value"
    value {
      tensor {
        dtype: DT_STRING
        tensor_shape {
        }
        string_val: "RAW"
      }
    }
  }
}
node {
  name: "pascalvoc_2007_data_provider/Equal_1"
  op: "Equal"
  input: "pascalvoc_2007_data_provider/Reshape_2"
  input: "pascalvoc_2007_data_provider/Equal_1/y"
  device: "/device:CPU:0"
  attr {
    key: "T"
    value {
      type: DT_STRING
    }
  }
  attr {
    key: "_output_shapes"
    value {
      list {
        shape {
        }
      }
    }
  }
}
node {
  name: "pascalvoc_2007_data_provider/LogicalOr"
  op: "LogicalOr"
  input: "pascalvoc_2007_data_provider/Equal"
  input: "pascalvoc_2007_data_provider/Equal_1"
  device: "/device:CPU:0"
  attr {
    key: "_output_shapes"
    value {
      list {
        shape {
        }
      }
    }
  }
}
node {
  name: "pascalvoc_2007_data_provider/case/preds_c"
  op: "Pack"
  input: "pascalvoc_2007_data_provider/LogicalOr"
  device: "/device:CPU:0"
  attr {
    key: "N"
    value {
      i: 1
    }
  }
  attr {
    key: "T"
    value {
      type: DT_BOOL
    }
  }
  attr {
    key: "_output_shapes"
    value {
      list {
        shape {
          dim {
            size: 1
          }
        }
      }
    }
  }
  attr {
    key: "axis"
    value {
      i: 0
    }
  }
}
node {
  name: "pascalvoc_2007_data_provider/case/Cast"
  op: "Cast"
  input: "pascalvoc_2007_data_provider/case/preds_c"
  device: "/device:CPU:0"
  attr {
    key: "DstT"
    value {
      type: DT_INT32
    }
  }
  attr {
    key: "SrcT"
    value {
      type: DT_BOOL
    }
  }
  attr {
    key: "Truncate"
    value {
      b: false
    }
  }
  attr {
    key: "_output_shapes"
    value {
      list {
        shape {
          dim {
            size: 1
          }
        }
      }
    }
  }
}
node {
  name: "pascalvoc_2007_data_provider/case/Const"
  op: "Const"
  device: "/device:CPU:0"
  attr {
    key: "_output_shapes"
    value {
      list {
        shape {
          dim {
            size: 1
          }
        }
      }
    }
  }
  attr {
    key: "dtype"
    value {
      type: DT_INT32
    }
  }
  attr {
    key: "value"
    value {
      tensor {
        dtype: DT_INT32
        tensor_shape {
          dim {
            size: 1
          }
        }
        int_val: 0
      }
    }
  }
}
node {
  name: "pascalvoc_2007_data_provider/case/num_true_conds"
  op: "Sum"
  input: "pascalvoc_2007_data_provider/case/Cast"
  input: "pascalvoc_2007_data_provider/case/Const"
  device: "/device:CPU:0"
  attr {
    key: "T"
    value {
      type: DT_INT32
    }
  }
  attr {
    key: "Tidx"
    value {
      type: DT_INT32
    }
  }
  attr {
    key: "_output_shapes"
    value {
      list {
        shape {
        }
      }
    }
  }
  attr {
    key: "keep_dims"
    value {
      b: false
    }
  }
}
node {
  name: "pascalvoc_2007_data_provider/case/n_true_conds"
  op: "Const"
  device: "/device:CPU:0"
  attr {
    key: "_output_shapes"
    value {
      list {
        shape {
        }
      }
    }
  }
  attr {
    key: "dtype"
    value {
      type: DT_INT32
    }
  }
  attr {
    key: "value"
    value {
      tensor {
        dtype: DT_INT32
        tensor_shape {
        }
        int_val: 1
      }
    }
  }
}
node {
  name: "pascalvoc_2007_data_provider/case/LessEqual"
  op: "LessEqual"
  input: "pascalvoc_2007_data_provider/case/num_true_conds"
  input: "pascalvoc_2007_data_provider/case/n_true_conds"
  device: "/device:CPU:0"
  attr {
    key: "T"
    value {
      type: DT_INT32
    }
  }
  attr {
    key: "_output_shapes"
    value {
      list {
        shape {
        }
      }
    }
  }
}
node {
  name: "pascalvoc_2007_data_provider/case/Assert/Const"
  op: "Const"
  device: "/device:CPU:0"
  attr {
    key: "_output_shapes"
    value {
      list {
        shape {
        }
      }
    }
  }
  attr {
    key: "dtype"
    value {
      type: DT_STRING
    }
  }
  attr {
    key: "value"
    value {
      tensor {
        dtype: DT_STRING
        tensor_shape {
        }
        string_val: "…"
      }
    }
  }
}
node {
  name: "pascalvoc_2007_data_provider/case/Assert/AssertGuard/Switch"
  op: "Switch"
  input: "pascalvoc_2007_data_provider/case/LessEqual"
  input: "pascalvoc_2007_data_provider/case/LessEqual"
  device: "/device:CPU:0"
  attr {
    key: "T"
    value {
      type: DT_BOOL
    }
  }
  attr {
    key: "_output_shapes"
    value {
      list {
        shape {
        }
        shape {
        }
      }
    }
  }
}
node {
  name: "pascalvoc_2007_data_provider/case/Assert/AssertGuard/switch_t"
  op: "Identity"
  input: "pascalvoc_2007_data_provider/case/Assert/AssertGuard/Switch:1"
  device: "/device:CPU:0"
  attr {
    key: "T"
    value {
      type: DT_BOOL
    }
  }
  attr {
    key: "_output_shapes"
    value {
      list {
        shape {
        }
      }
    }
  }
}
node {
  name: "pascalvoc_2007_data_provider/case/Assert/AssertGuard/switch_f"
  op: "Identity"
  input: "pascalvoc_2007_data_provider/case/Assert/AssertGuard/Switch"
  device: "/device:CPU:0"
  attr {
    key: "T"
    value {
      type: DT_BOOL
    }
  }
  attr {
    key: "_output_shapes"
    value {
      list {
        shape {
        }
      }
    }
  }
}
node {
  name: "pascalvoc_2007_data_provider/case/Assert/AssertGuard/pred_id"
  op: "Identity"
  input: "pascalvoc_2007_data_provider/case/LessEqual"
  device: "/device:CPU:0"
  attr {
    key: "T"
    value {
      type: DT_BOOL
    }
  }
  attr {
    key: "_output_shapes"
    value {
      list {
        shape {
        }
      }
    }
  }
}
node {
  name: "pascalvoc_2007_data_provider/case/Assert/AssertGuard/NoOp"
  op: "NoOp"
  input: "^pascalvoc_2007_data_provider/case/Assert/AssertGuard/switch_t"
  device: "/device:CPU:0"
}
node {
  name: "pascalvoc_2007_data_provider/case/Assert/AssertGuard/control_dependency"
  op: "Identity"
  input: "pascalvoc_2007_data_provider/case/Assert/AssertGuard/switch_t"
  input: "^pascalvoc_2007_data_provider/case/Assert/AssertGuard/NoOp"
  device: "/device:CPU:0"
  attr {
    key: "T"
    value {
      type: DT_BOOL
    }
  }
  attr {
    key: "_class"
    value {
      list {
        s: "loc:@pascalvoc_2007_data_provider/case/Assert/AssertGuard/switch_t"
      }
    }
  }
  attr {
    key: "_output_shapes"
    value {
      list {
        shape {
        }
      }
    }
  }
}
node {
  name: "pascalvoc_2007_data_provider/case/Assert/AssertGuard/Assert/data_0"
  op: "Const"
  input: "^pascalvoc_2007_data_provider/case/Assert/AssertGuard/switch_f"
  device: "/device:CPU:0"
  attr {
    key: "_output_shapes"
    value {
      list {
        shape {
        }
      }
    }
  }
  attr {
    key: "dtype"
    value {
      type: DT_STRING
    }
  }
  attr {
    key: "value"
    value {
      tensor {
        dtype: DT_STRING
        tensor_shape {
        }
        string_val: "…"
      }
    }
  }
}
node {
  name: "pascalvoc_2007_data_provider/case/Assert/AssertGuard/Assert"
  op: "Assert"
  input: "pascalvoc_2007_data_provider/case/Assert/AssertGuard/Assert/Switch"
  input: "pascalvoc_2007_data_provider/case/Assert/AssertGuard/Assert/data_0"
  input: "pascalvoc_2007_data_provider/case/Assert/AssertGuard/Assert/Switch_1"
  device: "/device:CPU:0"
  attr {
    key: "T"
    value {
      list {
        type: DT_STRING
        type: DT_BOOL
      }
    }
  }
  attr {
    key: "summarize"
    value {
      i: 1
    }
  }
}
node {
  name: "pascalvoc_2007_data_provider/case/Assert/AssertGuard/Assert/Switch"
  op: "Switch"
  input: "pascalvoc_2007_data_provider/case/LessEqual"
  input: "pascalvoc_2007_data_provider/case/Assert/AssertGuard/pred_id"
  device: "/device:CPU:0"
  attr {
    key: "T"
    value {
      type: DT_BOOL
    }
  }
  attr {
    key: "_class"
    value {
      list {
        s: "loc:@pascalvoc_2007_data_provider/case/LessEqual"
      }
    }
  }
  attr {
    key: "_output_shapes"
    value {
      list {
        shape {
        }
        shape {
        }
      }
    }
  }
}
node {
  name: "pascalvoc_2007_data_provider/case/Assert/AssertGuard/Assert/Switch_1"
  op: "Switch"
  input: "pascalvoc_2007_data_provider/case/preds_c"
  input: "pascalvoc_2007_data_provider/case/Assert/AssertGuard/pred_id"
  device: "/device:CPU:0"
  attr {
    key: "T"
    value {
      type: DT_BOOL
    }
  }
  attr {
    key: "_class"
    value {
      list {
        s: "loc:@pascalvoc_2007_data_provider/case/preds_c"
      }
    }
  }
  attr {
    key: "_output_shapes"
    value {
      list {
        shape {
          dim {
            size: 1
          }
        }
        shape {
          dim {
            size: 1
          }
        }
      }
    }
  }
}
node {
  name: "pascalvoc_2007_data_provider/case/Assert/AssertGuard/control_dependency_1"
  op: "Identity"
  input: "pascalvoc_2007_data_provider/case/Assert/AssertGuard/switch_f"
  input: "^pascalvoc_2007_data_provider/case/Assert/AssertGuard/Assert"
  device: "/device:CPU:0"
  attr {
    key: "T"
    value {
      type: DT_BOOL
    }
  }
  attr {
    key: "_class"
    value {
      list {
        s: "loc:@pascalvoc_2007_data_provider/case/Assert/AssertGuard/switch_f"
      }
    }
  }
  attr {
    key: "_output_shapes"
    value {
      list {
        shape {
        }
      }
    }
  }
}
node {
  name: "pascalvoc_2007_data_provider/case/Assert/AssertGuard/Merge"
  op: "Merge"
  input: "pascalvoc_2007_data_provider/case/Assert/AssertGuard/control_dependency_1"
  input: "pascalvoc_2007_data_provider/case/Assert/AssertGuard/control_dependency"
  device: "/device:CPU:0"
  attr {
    key: "N"
    value {
      i: 2
    }
  }
  attr {
    key: "T"
    value {
      type: DT_BOOL
    }
  }
  attr {
    key: "_output_shapes"
    value {
      list {
        shape {
        }
        shape {
        }
      }
    }
  }
}
node {
  name: "pascalvoc_2007_data_provider/case/cond/Switch"
  op: "Switch"
  input: "pascalvoc_2007_data_provider/LogicalOr"
  input: "pascalvoc_2007_data_provider/LogicalOr"
  input: "^pascalvoc_2007_data_provider/case/Assert/AssertGuard/Merge"
  device: "/device:CPU:0"
  attr {
    key: "T"
    value {
      type: DT_BOOL
    }
  }
  attr {
    key: "_output_shapes"
    value {
      list {
        shape {
        }
        shape {
        }
      }
    }
  }
}
node {
  name: "pascalvoc_2007_data_provider/case/cond/switch_t"
  op: "Identity"
  input: "pascalvoc_2007_data_provider/case/cond/Switch:1"
  device: "/device:CPU:0"
  attr {
    key: "T"
    value {
      type: DT_BOOL
    }
  }
  attr {
    key: "_output_shapes"
    value {
      list {
        shape {
        }
      }
    }
  }
}
node {
  name: "pascalvoc_2007_data_provider/case/cond/switch_f"
  op: "Identity"
  input: "pascalvoc_2007_data_provider/case/cond/Switch"
  device: "/device:CPU:0"
  attr {
    key: "T"
    value {
      type: DT_BOOL
    }
  }
  attr {
    key: "_output_shapes"
    value {
      list {
        shape {
        }
      }
    }
  }
}
node {
  name: "pascalvoc_2007_data_provider/case/cond/pred_id"
  op: "Identity"
  input: "pascalvoc_2007_data_provider/LogicalOr"
  input: "^pascalvoc_2007_data_provider/case/Assert/AssertGuard/Merge"
  device: "/device:CPU:0"
  attr {
    key: "T"
    value {
      type: DT_BOOL
    }
  }
  attr {
    key: "_output_shapes"
    value {
      list {
        shape {
        }
      }
    }
  }
}
node {
  name: "pascalvoc_2007_data_provider/case/cond/DecodeRaw"
  op: "DecodeRaw"
  input: "pascalvoc_2007_data_provider/case/cond/DecodeRaw/Switch:1"
  input: "^pascalvoc_2007_data_provider/case/Assert/AssertGuard/Merge"
  device: "/device:CPU:0"
  attr {
    key: "_output_shapes"
    value {
      list {
        shape {
          dim {
            size: -1
          }
        }
      }
    }
  }
  attr {
    key: "little_endian"
    value {
      b: true
    }
  }
  attr {
    key: "out_type"
    value {
      type: DT_UINT8
    }
  }
}
node {
  name: "pascalvoc_2007_data_provider/case/cond/DecodeRaw/Switch"
  op: "Switch"
  input: "pascalvoc_2007_data_provider/Reshape_1"
  input: "pascalvoc_2007_data_provider/case/cond/pred_id"
  device: "/device:CPU:0"
  attr {
    key: "T"
    value {
      type: DT_STRING
    }
  }
  attr {
    key: "_class"
    value {
      list {
        s: "loc:@pascalvoc_2007_data_provider/Reshape_1"
      }
    }
  }
  attr {
    key: "_output_shapes"
    value {
      list {
        shape {
        }
        shape {
        }
      }
    }
  }
}
node {
  name: "pascalvoc_2007_data_provider/case/cond/is_jpeg/Substr/pos"
  op: "Const"
  input: "^pascalvoc_2007_data_provider/case/Assert/AssertGuard/Merge"
  input: "^pascalvoc_2007_data_provider/case/cond/switch_f"
  device: "/device:CPU:0"
  attr {
    key: "_output_shapes"
    value {
      list {
        shape {
        }
      }
    }
  }
  attr {
    key: "dtype"
    value {
      type: DT_INT32
    }
  }
  attr {
    key: "value"
    value {
      tensor {
        dtype: DT_INT32
        tensor_shape {
        }
        int_val: 0
      }
    }
  }
}
node {
  name: "pascalvoc_2007_data_provider/case/cond/is_jpeg/Substr/len"
  op: "Const"
  input: "^pascalvoc_2007_data_provider/case/Assert/AssertGuard/Merge"
  input: "^pascalvoc_2007_data_provider/case/cond/switch_f"
  device: "/device:CPU:0"
  attr {
    key: "_output_shapes"
    value {
      list {
        shape {
        }
      }
    }
  }
  attr {
    key: "dtype"
    value {
      type: DT_INT32
    }
  }
  attr {
    key: "value"
    value {
      tensor {
        dtype: DT_INT32
        tensor_shape {
        }
        int_val: 3
      }
    }
  }
}
node {
  name: "pascalvoc_2007_data_provider/case/cond/is_jpeg/Substr"
  op: "Substr"
  input: "pascalvoc_2007_data_provider/case/cond/is_jpeg/Substr/Switch"
  input: "pascalvoc_2007_data_provider/case/cond/is_jpeg/Substr/pos"
  input: "pascalvoc_2007_data_provider/case/cond/is_jpeg/Substr/len"
  device: "/device:CPU:0"
  attr {
    key: "T"
    value {
      type: DT_INT32
    }
  }
  attr {
    key: "_output_shapes"
    value {
      list {
        shape {
        }
      }
    }
  }
  attr {
    key: "unit"
    value {
      s: "BYTE"
    }
  }
}
node {
  name: "pascalvoc_2007_data_provider/case/cond/is_jpeg/Substr/Switch"
  op: "Switch"
  input: "pascalvoc_2007_data_provider/Reshape_1"
  input: "pascalvoc_2007_data_provider/case/cond/pred_id"
  device: "/device:CPU:0"
  attr {
    key: "T"
    value {
      type: DT_STRING
    }
  }
  attr {
    key: "_class"
    value {
      list {
        s: "loc:@pascalvoc_2007_data_provider/Reshape_1"
      }
    }
  }
  attr {
    key: "_output_shapes"
    value {
      list {
        shape {
        }
        shape {
        }
      }
    }
  }
}
node {
  name: "pascalvoc_2007_data_provider/case/cond/is_jpeg/Equal/y"
  op: "Const"
  input: "^pascalvoc_2007_data_provider/case/Assert/AssertGuard/Merge"
  input: "^pascalvoc_2007_data_provider/case/cond/switch_f"
  device: "/device:CPU:0"
  attr {
    key: "_output_shapes"
    value {
      list {
        shape {
        }
      }
    }
  }
  attr {
    key: "dtype"
    value {
      type: DT_STRING
    }
  }
  attr {
    key: "value"
    value {
      tensor {
        dtype: DT_STRING
        tensor_shape {
        }
        string_val: "\377\330\377"
      }
    }
  }
}
node {
  name: "pascalvoc_2007_data_provider/case/cond/is_jpeg/Equal"
  op: "Equal"
  input: "pascalvoc_2007_data_provider/case/cond/is_jpeg/Substr"
  input: "pascalvoc_2007_data_provider/case/cond/is_jpeg/Equal/y"
  device: "/device:CPU:0"
  attr {
    key: "T"
    value {
      type: DT_STRING
    }
  }
  attr {
    key: "_output_shapes"
    value {
      list {
        shape {
        }
      }
    }
  }
}
node {
  name: "pascalvoc_2007_data_provider/case/cond/cond_jpeg/Switch"
  op: "Switch"
  input: "pascalvoc_2007_data_provider/case/cond/is_jpeg/Equal"
  input: "pascalvoc_2007_data_provider/case/cond/is_jpeg/Equal"
  device: "/device:CPU:0"
  attr {
    key: "T"
    value {
      type: DT_BOOL
    }
  }
  attr {
    key: "_output_shapes"
    value {
      list {
        shape {
        }
        shape {
        }
      }
    }
  }
}
node {
  name: "pascalvoc_2007_data_provider/case/cond/cond_jpeg/switch_t"
  op: "Identity"
  input: "pascalvoc_2007_data_provider/case/cond/cond_jpeg/Switch:1"
  device: "/device:CPU:0"
  attr {
    key: "T"
    value {
      type: DT_BOOL
    }
  }
  attr {
    key: "_output_shapes"
    value {
      list {
        shape {
        }
      }
    }
  }
}
node {
  name: "pascalvoc_2007_data_provider/case/cond/cond_jpeg/switch_f"
  op: "Identity"
  input: "pascalvoc_2007_data_provider/case/cond/cond_jpeg/Switch"
  device: "/device:CPU:0"
  attr {
    key: "T"
    value {
      type: DT_BOOL
    }
  }
  attr {
    key: "_output_shapes"
    value {
      list {
        shape {
        }
      }
    }
  }
}
node {
  name: "pascalvoc_2007_data_provider/case/cond/cond_jpeg/pred_id"
  op: "Identity"
  input: "pascalvoc_2007_data_provider/case/cond/is_jpeg/Equal"
  device: "/device:CPU:0"
  attr {
    key: "T"
    value {
      type: DT_BOOL
    }
  }
  attr {
    key: "_output_shapes"
    value {
      list {
        shape {
        }
      }
    }
  }
}
node {
  name: "pascalvoc_2007_data_provider/case/cond/cond_jpeg/DecodeJpeg"
  op: "DecodeJpeg"
  input: "pascalvoc_2007_data_provider/case/cond/cond_jpeg/DecodeJpeg/Switch:1"
  input: "^pascalvoc_2007_data_provider/case/Assert/AssertGuard/Merge"
  device: "/device:CPU:0"
  attr {
    key: "_output_shapes"
    value {
      list {
        shape {
          dim {
            size: -1
          }
          dim {
            size: -1
          }
          dim {
            size: 3
          }
        }
      }
    }
  }
  attr {
    key: "acceptable_fraction"
    value {
      f: 1.0
    }
  }
  attr {
    key: "channels"
    value {
      i: 3
    }
  }
  attr {
    key: "dct_method"
    value {
      s: ""
    }
  }
  attr {
    key: "fancy_upscaling"
    value {
      b: true
    }
  }
  attr {
    key: "ratio"
    value {
      i: 1
    }
  }
  attr {
    key: "try_recover_truncated"
    value {
      b: false
    }
  }
}
node {
  name: "pascalvoc_2007_data_provider/case/cond/cond_jpeg/DecodeJpeg/Switch"
  op: "Switch"
  input: "pascalvoc_2007_data_provider/case/cond/is_jpeg/Substr/Switch"
  input: "pascalvoc_2007_data_provider/case/cond/cond_jpeg/pred_id"
  device: "/device:CPU:0"
  attr {
    key: "T"
    value {
      type: DT_STRING
    }
  }
  attr {
    key: "_class"
    value {
      list {
        s: "loc:@pascalvoc_2007_data_provider/Reshape_1"
      }
    }
  }
  attr {
    key: "_output_shapes"
    value {
      list {
        shape {
        }
        shape {
        }
      }
    }
  }
}
node {
  name: "pascalvoc_2007_data_provider/case/cond/cond_jpeg/decode_image/Substr/pos"
  op: "Const"
  input: "^pascalvoc_2007_data_provider/case/Assert/AssertGuard/Merge"
  input: "^pascalvoc_2007_data_provider/case/cond/cond_jpeg/switch_f"
  device: "/device:CPU:0"
  attr {
    key: "_output_shapes"
    value {
      list {
        shape {
        }
      }
    }
  }
  attr {
    key: "dtype"
    value {
      type: DT_INT32
    }
  }
  attr {
    key: "value"
    value {
      tensor {
        dtype: DT_INT32
        tensor_shape {
        }
        int_val: 0
      }
    }
  }
}
node {
  name: "pascalvoc_2007_data_provider/case/cond/cond_jpeg/decode_image/Substr/len"
  op: "Const"
  input: "^pascalvoc_2007_data_provider/case/Assert/AssertGuard/Merge"
  input: "^pascalvoc_2007_data_provider/case/cond/cond_jpeg/switch_f"
  device: "/device:CPU:0"
  attr {
    key: "_output_shapes"
    value {
      list {
        shape {
        }
      }
    }
  }
  attr {
    key: "dtype"
    value {
      type: DT_INT32
    }
  }
  attr {
    key: "value"
    value {
      tensor {
        dtype: DT_INT32
        tensor_shape {
        }
        int_val: 3
      }
    }
  }
}
node {
  name: "pascalvoc_2007_data_provider/case/cond/cond_jpeg/decode_image/Substr"
  op: "Substr"
  input: "pascalvoc_2007_data_provider/case/cond/cond_jpeg/decode_image/Substr/Switch"
  input: "pascalvoc_2007_data_provider/case/cond/cond_jpeg/decode_image/Substr/pos"
  input: "pascalvoc_2007_data_provider/case/cond/cond_jpeg/decode_image/Substr/len"
  device: "/device:CPU:0"
  attr {
    key: "T"
    value {
      type: DT_INT32
    }
  }
  attr {
    key: "_output_shapes"
    value {
      list {
        shape {
        }
      }
    }
  }
  attr {
    key: "unit"
    value {
      s: "BYTE"
    }
  }
}
node {
  name: "pascalvoc_2007_data_provider/case/cond/cond_jpeg/decode_image/Substr/Switch"
  op: "Switch"
  input: "pascalvoc_2007_data_provider/case/cond/is_jpeg/Substr/Switch"
  input: "pascalvoc_2007_data_provider/case/cond/cond_jpeg/pred_id"
  device: "/device:CPU:0"
  attr {
    key: "T"
    value {
      type: DT_STRING
    }
  }
  attr {
    key: "_class"
    value {
      list {
        s: "loc:@pascalvoc_2007_data_provider/Reshape_1"
      }
    }
  }
  attr {
    key: "_output_shapes"
    value {
      list {
        shape {
        }
        shape {
        }
      }
    }
  }
}
node {
  name: "pascalvoc_2007_data_provider/case/cond/cond_jpeg/decode_image/is_jpeg/Substr/pos"
  op: "Const"
  input: "^pascalvoc_2007_data_provider/case/Assert/AssertGuard/Merge"
  input: "^pascalvoc_2007_data_provider/case/cond/cond_jpeg/switch_f"
  device: "/device:CPU:0"
  attr {
    key: "_output_shapes"
    value {
      list {
        shape {
        }
      }
    }
  }
  attr {
    key: "dtype"
    value {
      type: DT_INT32
    }
  }
  attr {
    key: "value"
    value {
      tensor {
        dtype: DT_INT32
        tensor_shape {
        }
        int_val: 0
      }
    }
  }
}
node {
  name: "pascalvoc_2007_data_provider/case/cond/cond_jpeg/decode_image/is_jpeg/Substr/len"
  op: "Const"
  input: "^pascalvoc_2007_data_provider/case/Assert/AssertGuard/Merge"
  input: "^pascalvoc_2007_data_provider/case/cond/cond_jpeg/switch_f"
  device: "/device:CPU:0"
  attr {
    key: "_output_shapes"
    value {
      list {
        shape {
        }
      }
    }
  }
  attr {
    key: "dtype"
    value {
      type: DT_INT32
    }
  }
  attr {
    key: "value"
    value {
      tensor {
        dtype: DT_INT32
        tensor_shape {
        }
        int_val: 3
      }
    }
  }
}
node {
  name: "pascalvoc_2007_data_provider/case/cond/cond_jpeg/decode_image/is_jpeg/Substr"
  op: "Substr"
  input: "pascalvoc_2007_data_provider/case/cond/cond_jpeg/decode_image/Substr/Switch"
  input: "pascalvoc_2007_data_provider/case/cond/cond_jpeg/decode_image/is_jpeg/Substr/pos"
  input: "pascalvoc_2007_data_provider/case/cond/cond_jpeg/decode_image/is_jpeg/Substr/len"
  device: "/device:CPU:0"
  attr {
    key: "T"
    value {
      type: DT_INT32
    }
  }
  attr {
    key: "_output_shapes"
    value {
      list {
        shape {
        }
      }
    }
  }
  attr {
    key: "unit"
    value {
      s: "BYTE"
    }
  }
}
node {
  name: "pascalvoc_2007_data_provider/case/cond/cond_jpeg/decode_image/is_jpeg/Equal/y"
  op: "Const"
  input: "^pascalvoc_2007_data_provider/case/Assert/AssertGuard/Merge"
  input: "^pascalvoc_2007_data_provider/case/cond/cond_jpeg/switch_f"
  device: "/device:CPU:0"
  attr {
    key: "_output_shapes"
    value {
      list {
        shape {
        }
      }
    }
  }
  attr {
    key: "dtype"
    value {
      type: DT_STRING
    }
  }
  attr {
    key: "value"
    value {
      tensor {
        dtype: DT_STRING
        tensor_shape {
        }
        string_val: "\377\330\377"
      }
    }
  }
}
node {
  name: "pascalvoc_2007_data_provider/case/cond/cond_jpeg/decode_image/is_jpeg/Equal"
  op: "Equal"
  input: "pascalvoc_2007_data_provider/case/cond/cond_jpeg/decode_image/is_jpeg/Substr"
  input: "pascalvoc_2007_data_provider/case/cond/cond_jpeg/decode_image/is_jpeg/Equal/y"
  device: "/device:CPU:0"
  attr {
    key: "T"
    value {
      type: DT_STRING
    }
  }
  attr {
    key: "_output_shapes"
    value {
      list {
        shape {
        }
      }
    }
  }
}
node {
  name: "pascalvoc_2007_data_provider/case/cond/cond_jpeg/decode_image/cond_jpeg/Switch"
  op: "Switch"
  input: "pascalvoc_2007_data_provider/case/cond/cond_jpeg/decode_image/is_jpeg/Equal"
  input: "pascalvoc_2007_data_provider/case/cond/cond_jpeg/decode_image/is_jpeg/Equal"
  device: "/device:CPU:0"
  attr {
    key: "T"
    value {
      type: DT_BOOL
    }
  }
  attr {
    key: "_output_shapes"
    value {
      list {
        shape {
        }
        shape {
        }
      }
    }
  }
}
node {
  name: "pascalvoc_2007_data_provider/case/cond/cond_jpeg/decode_image/cond_jpeg/switch_t"
  op: "Identity"
  input: "pascalvoc_2007_data_provider/case/cond/cond_jpeg/decode_image/cond_jpeg/Switch:1"
  device: "/device:CPU:0"
  attr {
    key: "T"
    value {
      type: DT_BOOL
    }
  }
  attr {
    key: "_output_shapes"
    value {
      list {
        shape {
        }
      }
    }
  }
}
node {
  name: "pascalvoc_2007_data_provider/case/cond/cond_jpeg/decode_image/cond_jpeg/switch_f"
  op: "Identity"
  input: "pascalvoc_2007_data_provider/case/cond/cond_jpeg/decode_image/cond_jpeg/Switch"
  device: "/device:CPU:0"
  attr {
    key: "T"
    value {
      type: DT_BOOL
    }
  }
  attr {
    key: "_output_shapes"
    value {
      list {
        shape {
        }
      }
    }
  }
}
node {
  name: "pascalvoc_2007_data_provider/case/cond/cond_jpeg/decode_image/cond_jpeg/pred_id"
  op: "Identity"
  input: "pascalvoc_2007_data_provider/case/cond/cond_jpeg/decode_image/is_jpeg/Equal"
  device: "/device:CPU:0"
  attr {
    key: "T"
    value {
      type: DT_BOOL
    }
  }
  attr {
    key: "_output_shapes"
    value {
      list {
        shape {
        }
      }
    }
  }
}
node {
  name: "pascalvoc_2007_data_provider/case/cond/cond_jpeg/decode_image/cond_jpeg/check_jpeg_channels/x"
  op: "Const"
  input: "^pascalvoc_2007_data_provider/case/Assert/AssertGuard/Merge"
  input: "^pascalvoc_2007_data_provider/case/cond/cond_jpeg/decode_image/cond_jpeg/switch_t"
  device: "/device:CPU:0"
  attr {
    key: "_output_shapes"
    value {
      list {
        shape {
        }
      }
    }
  }
  attr {
    key: "dtype"
    value {
      type: DT_INT32
    }
  }
  attr {
    key: "value"
    value {
      tensor {
        dtype: DT_INT32
        tensor_shape {
        }
        int_val: 3
      }
    }
  }
}
node {
  name: "pascalvoc_2007_data_provider/case/cond/cond_jpeg/decode_image/cond_jpeg/check_jpeg_channels/y"
  op: "Const"
  input: "^pascalvoc_2007_data_provider/case/Assert/AssertGuard/Merge"
  input: "^pascalvoc_2007_data_provider/case/cond/cond_jpeg/decode_image/cond_jpeg/switch_t"
  device: "/device:CPU:0"
  attr {
    key: "_output_shapes"
    value {
      list {
        shape {
        }
      }
    }
  }
  attr {
    key: "dtype"
    value {
      type: DT_INT32
    }
  }
  attr {
    key: "value"
    value {
      tensor {
        dtype: DT_INT32
        tensor_shape {
        }
        int_val: 4
      }
    }
  }
}
node {
  name: "pascalvoc_2007_data_provider/case/cond/cond_jpeg/decode_image/cond_jpeg/check_jpeg_channels"
  op: "NotEqual"
  input: "pascalvoc_2007_data_provider/case/cond/cond_jpeg/decode_image/cond_jpeg/check_jpeg_channels/x"
  input: "pascalvoc_2007_data_provider/case/cond/cond_jpeg/decode_image/cond_jpeg/check_jpeg_channels/y"
  device: "/device:CPU:0"
  attr {
    key: "T"
    value {
      type: DT_INT32
    }
  }
  attr {
    key: "_output_shapes"
    value {
      list {
        shape {
        }
      }
    }
  }
}
node {
  name: "pascalvoc_2007_data_provider/case/cond/cond_jpeg/decode_image/cond_jpeg/Assert/Const"
  op: "Const"
  input: "^pascalvoc_2007_data_provider/case/Assert/AssertGuard/Merge"
  input: "^pascalvoc_2007_data_provider/case/cond/cond_jpeg/decode_image/cond_jpeg/switch_t"
  device: "/device:CPU:0"
  attr {
    key: "_output_shapes"
    value {
      list {
        shape {
        }
      }
    }
  }
  attr {
    key: "dtype"
    value {
      type: DT_STRING
    }
  }
  attr {
    key: "value"
    value {
      tensor {
        dtype: DT_STRING
        tensor_shape {
        }
        string_val: "Channels must be in (None, 0, 1, 3) when decoding JPEG images"
      }
    }
  }
}
node {
  name: "pascalvoc_2007_data_provider/case/cond/cond_jpeg/decode_image/cond_jpeg/Assert/Assert/data_0"
  op: "Const"
  input: "^pascalvoc_2007_data_provider/case/Assert/AssertGuard/Merge"
  input: "^pascalvoc_2007_data_provider/case/cond/cond_jpeg/decode_image/cond_jpeg/switch_t"
  device: "/device:CPU:0"
  attr {
    key: "_output_shapes"
    value {
      list {
        shape {
        }
      }
    }
  }
  attr {
    key: "dtype"
    value {
      type: DT_STRING
    }
  }
  attr {
    key: "value"
    value {
      tensor {
        dtype: DT_STRING
        tensor_shape {
        }
        string_val: "Channels must be in (None, 0, 1, 3) when decoding JPEG images"
      }
    }
  }
}
node {
  name: "pascalvoc_2007_data_provider/case/cond/cond_jpeg/decode_image/cond_jpeg/Assert/Assert"
  op: "Assert"
  input: "pascalvoc_2007_data_provider/case/cond/cond_jpeg/decode_image/cond_jpeg/check_jpeg_channels"
  input: "pascalvoc_2007_data_provider/case/cond/cond_jpeg/decode_image/cond_jpeg/Assert/Assert/data_0"
  device: "/device:CPU:0"
  attr {
    key: "T"
    value {
      list {
        type: DT_STRING
      }
    }
  }
  attr {
    key: "summarize"
    value {
      i: 3
    }
  }
}
node {
  name: "pascalvoc_2007_data_provider/case/cond/cond_jpeg/decode_image/cond_jpeg/DecodeJpeg"
  op: "DecodeJpeg"
  input: "pascalvoc_2007_data_provider/case/cond/cond_jpeg/decode_image/cond_jpeg/DecodeJpeg/Switch:1"
  input: "^pascalvoc_2007_data_provider/case/Assert/AssertGuard/Merge"
  input: "^pascalvoc_2007_data_provider/case/cond/cond_jpeg/decode_image/cond_jpeg/Assert/Assert"
  device: "/device:CPU:0"
  attr {
    key: "_output_shapes"
    value {
      list {
        shape {
          dim {
            size: -1
          }
          dim {
            size: -1
          }
          dim {
            size: 3
          }
        }
      }
    }
  }
  attr {
    key: "acceptable_fraction"
    value {
      f: 1.0
    }
  }
  attr {
    key: "channels"
    value {
      i: 3
    }
  }
  attr {
    key: "dct_method"
    value {
      s: ""
    }
  }
  attr {
    key: "fancy_upscaling"
    value {
      b: true
    }
  }
  attr {
    key: "ratio"
    value {
      i: 1
    }
  }
  attr {
    key: "try_recover_truncated"
    value {
      b: false
    }
  }
}
node {
  name: "pascalvoc_2007_data_provider/case/cond/cond_jpeg/decode_image/cond_jpeg/DecodeJpeg/Switch"
  op: "Switch"
  input: "pascalvoc_2007_data_provider/case/cond/cond_jpeg/decode_image/Substr/Switch"
  input: "pascalvoc_2007_data_provider/case/cond/cond_jpeg/decode_image/cond_jpeg/pred_id"
  device: "/device:CPU:0"
  attr {
    key: "T"
    value {
      type: DT_STRING
    }
  }
  attr {
    key: "_class"
    value {
      list {
        s: "loc:@pascalvoc_2007_data_provider/Reshape_1"
      }
    }
  }
  attr {
    key: "_output_shapes"
    value {
      list {
        shape {
        }
        shape {
        }
      }
    }
  }
}
node {
  name: "pascalvoc_2007_data_provider/case/cond/cond_jpeg/decode_image/cond_jpeg/Identity"
  op: "Identity"
  input: "pascalvoc_2007_data_provider/case/cond/cond_jpeg/decode_image/cond_jpeg/DecodeJpeg"
  device: "/device:CPU:0"
  attr {
    key: "T"
    value {
      type: DT_UINT8
    }
  }
  attr {
    key: "_output_shapes"
    value {
      list {
        shape {
          dim {
            size: -1
          }
          dim {
            size: -1
          }
          dim {
            size: 3
          }
        }
      }
    }
  }
}
node {
  name: "pascalvoc_2007_data_provider/case/cond/cond_jpeg/decode_image/cond_jpeg/is_png/Substr/pos"
  op: "Const"
  input: "^pascalvoc_2007_data_provider/case/Assert/AssertGuard/Merge"
  input: "^pascalvoc_2007_data_provider/case/cond/cond_jpeg/decode_image/cond_jpeg/switch_f"
  device: "/device:CPU:0"
  attr {
    key: "_output_shapes"
    value {
      list {
        shape {
        }
      }
    }
  }
  attr {
    key: "dtype"
    value {
      type: DT_INT32
    }
  }
  attr {
    key: "value"
    value {
      tensor {
        dtype: DT_INT32
        tensor_shape {
        }
        int_val: 0
      }
    }
  }
}
node {
  name: "pascalvoc_2007_data_provider/case/cond/cond_jpeg/decode_image/cond_jpeg/is_png/Substr/len"
  op: "Const"
  input: "^pascalvoc_2007_data_provider/case/Assert/AssertGuard/Merge"
  input: "^pascalvoc_2007_data_provider/case/cond/cond_jpeg/decode_image/cond_jpeg/switch_f"
  device: "/device:CPU:0"
  attr {
    key: "_output_shapes"
    value {
      list {
        shape {
        }
      }
    }
  }
  attr {
    key: "dtype"
    value {
      type: DT_INT32
    }
  }
  attr {
    key: "value"
    value {
      tensor {
        dtype: DT_INT32
        tensor_shape {
        }
        int_val: 3
      }
    }
  }
}
node {
  name: "pascalvoc_2007_data_provider/case/cond/cond_jpeg/decode_image/cond_jpeg/is_png/Substr"
  op: "Substr"
  input: "pascalvoc_2007_data_provider/case/cond/cond_jpeg/decode_image/cond_jpeg/is_png/Substr/Switch"
  input: "pascalvoc_2007_data_provider/case/cond/cond_jpeg/decode_image/cond_jpeg/is_png/Substr/pos"
  input: "pascalvoc_2007_data_provider/case/cond/cond_jpeg/decode_image/cond_jpeg/is_png/Substr/len"
  device: "/device:CPU:0"
  attr {
    key: "T"
    value {
      type: DT_INT32
    }
  }
  attr {
    key: "_output_shapes"
    value {
      list {
        shape {
        }
      }
    }
  }
  attr {
    key: "unit"
    value {
      s: "BYTE"
    }
  }
}
node {
  name: "pascalvoc_2007_data_provider/case/cond/cond_jpeg/decode_image/cond_jpeg/is_png/Substr/Switch"
  op: "Switch"
  input: "pascalvoc_2007_data_provider/case/cond/cond_jpeg/decode_image/Substr/Switch"
  input: "pascalvoc_2007_data_provider/case/cond/cond_jpeg/decode_image/cond_jpeg/pred_id"
  device: "/device:CPU:0"
  attr {
    key: "T"
    value {
      type: DT_STRING
    }
  }
  attr {
    key: "_class"
    value {
      list {
        s: "loc:@pascalvoc_2007_data_provider/Reshape_1"
      }
    }
  }
  attr {
    key: "_output_shapes"
    value {
      list {
        shape {
        }
        shape {
        }
      }
    }
  }
}
node {
  name: "pascalvoc_2007_data_provider/case/cond/cond_jpeg/decode_image/cond_jpeg/is_png/Equal/y"
  op: "Const"
  input: "^pascalvoc_2007_data_provider/case/Assert/AssertGuard/Merge"
  input: "^pascalvoc_2007_data_provider/case/cond/cond_jpeg/decode_image/cond_jpeg/switch_f"
  device: "/device:CPU:0"
  attr {
    key: "_output_shapes"
    value {
      list {
        shape {
        }
      }
    }
  }
  attr {
    key: "dtype"
    value {
      type: DT_STRING
    }
  }
  attr {
    key: "value"
    value {
      tensor {
        dtype: DT_STRING
        tensor_shape {
        }
        string_val: "\211PN"
      }
    }
  }
}
node {
  name: "pascalvoc_2007_data_provider/case/cond/cond_jpeg/decode_image/cond_jpeg/is_png/Equal"
  op: "Equal"
  input: "pascalvoc_2007_data_provider/case/cond/cond_jpeg/decode_image/cond_jpeg/is_png/Substr"
  input: "pascalvoc_2007_data_provider/case/cond/cond_jpeg/decode_image/cond_jpeg/is_png/Equal/y"
  device: "/device:CPU:0"
  attr {
    key: "T"
    value {
      type: DT_STRING
    }
  }
  attr {
    key: "_output_shapes"
    value {
      list {
        shape {
        }
      }
    }
  }
}
node {
  name: "pascalvoc_2007_data_provider/case/cond/cond_jpeg/decode_image/cond_jpeg/cond_png/Switch"
  op: "Switch"
  input: "pascalvoc_2007_data_provider/case/cond/cond_jpeg/decode_image/cond_jpeg/is_png/Equal"
  input: "pascalvoc_2007_data_provider/case/cond/cond_jpeg/decode_image/cond_jpeg/is_png/Equal"
  device: "/device:CPU:0"
  attr {
    key: "T"
    value {
      type: DT_BOOL
    }
  }
  attr {
    key: "_output_shapes"
    value {
      list {
        shape {
        }
        shape {
        }
      }
    }
  }
}
node {
  name: "pascalvoc_2007_data_provider/case/cond/cond_jpeg/decode_image/cond_jpeg/cond_png/switch_t"
  op: "Identity"
  input: "pascalvoc_2007_data_provider/case/cond/cond_jpeg/decode_image/cond_jpeg/cond_png/Switch:1"
  device: "/device:CPU:0"
  attr {
    key: "T"
    value {
      type: DT_BOOL
    }
  }
  attr {
    key: "_output_shapes"
    value {
      list {
        shape {
        }
      }
    }
  }
}
node {
  name: "pascalvoc_2007_data_provider/case/cond/cond_jpeg/decode_image/cond_jpeg/cond_png/switch_f"
  op: "Identity"
  input: "pascalvoc_2007_data_provider/case/cond/cond_jpeg/decode_image/cond_jpeg/cond_png/Switch"
  device: "/device:CPU:0"
  attr {
    key: "T"
    value {
      type: DT_BOOL
    }
  }
  attr {
    key: "_output_shapes"
    value {
      list {
        shape {
        }
      }
    }
  }
}
node {
  name: "pascalvoc_2007_data_provider/case/cond/cond_jpeg/decode_image/cond_jpeg/cond_png/pred_id"
  op: "Identity"
  input: "pascalvoc_2007_data_provider/case/cond/cond_jpeg/decode_image/cond_jpeg/is_png/Equal"
  device: "/device:CPU:0"
  attr {
    key: "T"
    value {
      type: DT_BOOL
    }
  }
  attr {
    key: "_output_shapes"
    value {
      list {
        shape {
        }
      }
    }
  }
}
node {
  name: "pascalvoc_2007_data_provider/case/cond/cond_jpeg/decode_image/cond_jpeg/cond_png/DecodePng"
  op: "DecodePng"
  input: "pascalvoc_2007_data_provider/case/cond/cond_jpeg/decode_image/cond_jpeg/cond_png/DecodePng/Switch:1"
  input: "^pascalvoc_2007_data_provider/case/Assert/AssertGuard/Merge"
  device: "/device:CPU:0"
  attr {
    key: "_output_shapes"
    value {
      list {
        shape {
          dim {
            size: -1
          }
          dim {
            size: -1
          }
          dim {
            size: 3
          }
        }
      }
    }
  }
  attr {
    key: "channels"
    value {
      i: 3
    }
  }
  attr {
    key: "dtype"
    value {
      type: DT_UINT8
    }
  }
}
node {
  name: "pascalvoc_2007_data_provider/case/cond/cond_jpeg/decode_image/cond_jpeg/cond_png/DecodePng/Switch"
  op: "Switch"
  input: "pascalvoc_2007_data_provider/case/cond/cond_jpeg/decode_image/cond_jpeg/is_png/Substr/Switch"
  input: "pascalvoc_2007_data_provider/case/cond/cond_jpeg/decode_image/cond_jpeg/cond_png/pred_id"
  device: "/device:CPU:0"
  attr {
    key: "T"
    value {
      type: DT_STRING
    }
  }
  attr {
    key: "_class"
    value {
      list {
        s: "loc:@pascalvoc_2007_data_provider/Reshape_1"
      }
    }
  }
  attr {
    key: "_output_shapes"
    value {
      list {
        shape {
        }
        shape {
        }
      }
    }
  }
}
node {
  name: "pascalvoc_2007_data_provider/case/cond/cond_jpeg/decode_image/cond_jpeg/cond_png/Identity"
  op: "Identity"
  input: "pascalvoc_2007_data_provider/case/cond/cond_jpeg/decode_image/cond_jpeg/cond_png/DecodePng"
  device: "/device:CPU:0"
  attr {
    key: "T"
    value {
      type: DT_UINT8
    }
  }
  attr {
    key: "_output_shapes"
    value {
      list {
        shape {
          dim {
            size: -1
          }
          dim {
            size: -1
          }
          dim {
            size: 3
          }
        }
      }
    }
  }
}
node {
  name: "pascalvoc_2007_data_provider/case/cond/cond_jpeg/decode_image/cond_jpeg/cond_png/is_gif/y"
  op: "Const"
  input: "^pascalvoc_2007_data_provider/case/Assert/AssertGuard/Merge"
  input: "^pascalvoc_2007_data_provider/case/cond/cond_jpeg/decode_image/cond_jpeg/cond_png/switch_f"
  device: "/device:CPU:0"
  attr {
    key: "_output_shapes"
    value {
      list {
        shape {
        }
      }
    }
  }
  attr {
    key: "dtype"
    value {
      type: DT_STRING
    }
  }
  attr {
    key: "value"
    value {
      tensor {
        dtype: DT_STRING
        tensor_shape {
        }
        string_val: "GIF"
      }
    }
  }
}
node {
  name: "pascalvoc_2007_data_provider/case/cond/cond_jpeg/decode_image/cond_jpeg/cond_png/is_gif"
  op: "Equal"
  input: "pascalvoc_2007_data_provider/case/cond/cond_jpeg/decode_image/cond_jpeg/cond_png/is_gif/Switch_1"
  input: "pascalvoc_2007_data_provider/case/cond/cond_jpeg/decode_image/cond_jpeg/cond_png/is_gif/y"
  device: "/device:CPU:0"
  attr {
    key: "T"
    value {
      type: DT_STRING
    }
  }
  attr {
    key: "_output_shapes"
    value {
      list {
        shape {
        }
      }
    }
  }
}
node {
  name: "pascalvoc_2007_data_provider/case/cond/cond_jpeg/decode_image/cond_jpeg/cond_png/is_gif/Switch"
  op: "Switch"
  input: "pascalvoc_2007_data_provider/case/cond/cond_jpeg/decode_image/Substr"
  input: "pascalvoc_2007_data_provider/case/cond/cond_jpeg/decode_image/cond_jpeg/pred_id"
  device: "/device:CPU:0"
  attr {
    key: "T"
    value {
      type: DT_STRING
    }
  }
  attr {
    key: "_class"
    value {
      list {
        s: "loc:@pascalvoc_2007_data_provider/case/cond/cond_jpeg/decode_image/Substr"
      }
    }
  }
  attr {
    key: "_output_shapes"
    value {
      list {
        shape {
        }
        shape {
        }
      }
    }
  }
}
node {
  name: "pascalvoc_2007_data_provider/case/cond/cond_jpeg/decode_image/cond_jpeg/cond_png/is_gif/Switch_1"
  op: "Switch"
  input: "pascalvoc_2007_data_provider/case/cond/cond_jpeg/decode_image/cond_jpeg/cond_png/is_gif/Switch"
  input: "pascalvoc_2007_data_provider/case/cond/cond_jpeg/decode_image/cond_jpeg/cond_png/pred_id"
  device: "/device:CPU:0"
  attr {
    key: "T"
    value {
      type: DT_STRING
    }
  }
  attr {
    key: "_class"
    value {
      list {
        s: "loc:@pascalvoc_2007_data_provider/case/cond/cond_jpeg/decode_image/Substr"
      }
    }
  }
  attr {
    key: "_output_shapes"
    value {
      list {
        shape {
        }
        shape {
        }
      }
    }
  }
}
node {
  name: "pascalvoc_2007_data_provider/case/cond/cond_jpeg/decode_image/cond_jpeg/cond_png/cond_gif/Switch"
  op: "Switch"
  input: "pascalvoc_2007_data_provider/case/cond/cond_jpeg/decode_image/cond_jpeg/cond_png/is_gif"
  input: "pascalvoc_2007_data_provider/case/cond/cond_jpeg/decode_image/cond_jpeg/cond_png/is_gif"
  device: "/device:CPU:0"
  attr {
    key: "T"
    value {
      type: DT_BOOL
    }
  }
  attr {
    key: "_output_shapes"
    value {
      list {
        shape {
        }
        shape {
        }
      }
    }
  }
}
node {
  name: "pascalvoc_2007_data_provider/case/cond/cond_jpeg/decode_image/cond_jpeg/cond_png/cond_gif/switch_t"
  op: "Identity"
  input: "pascalvoc_2007_data_provider/case/cond/cond_jpeg/decode_image/cond_jpeg/cond_png/cond_gif/Switch:1"
  device: "/device:CPU:0"
  attr {
    key: "T"
    value {
      type: DT_BOOL
    }
  }
  attr {
    key: "_output_shapes"
    value {
      list {
        shape {
        }
      }
    }
  }
}
node {
  name: "pascalvoc_2007_data_provider/case/cond/cond_jpeg/decode_image/cond_jpeg/cond_png/cond_gif/switch_f"
  op: "Identity"
  input: "pascalvoc_2007_data_provider/case/cond/cond_jpeg/decode_image/cond_jpeg/cond_png/cond_gif/Switch"
  device: "/device:CPU:0"
  attr {
    key: "T"
    value {
      type: DT_BOOL
    }
  }
  attr {
    key: "_output_shapes"
    value {
      list {
        shape {
        }
      }
    }
  }
}
node {
  name: "pascalvoc_2007_data_provider/case/cond/cond_jpeg/decode_image/cond_jpeg/cond_png/cond_gif/pred_id"
  op: "Identity"
  input: "pascalvoc_2007_data_provider/case/cond/cond_jpeg/decode_image/cond_jpeg/cond_png/is_gif"
  device: "/device:CPU:0"
  attr {
    key: "T"
    value {
      type: DT_BOOL
    }
  }
  attr {
    key: "_output_shapes"
    value {
      list {
        shape {
        }
      }
    }
  }
}
node {
  name: "pascalvoc_2007_data_provider/case/cond/cond_jpeg/decode_image/cond_jpeg/cond_png/cond_gif/check_gif_channels/x"
  op: "Const"
  input: "^pascalvoc_2007_data_provider/case/Assert/AssertGuard/Merge"
  input: "^pascalvoc_2007_data_provider/case/cond/cond_jpeg/decode_image/cond_jpeg/cond_png/cond_gif/switch_t"
  device: "/device:CPU:0"
  attr {
    key: "_output_shapes"
    value {
      list {
        shape {
        }
      }
    }
  }
  attr {
    key: "dtype"
    value {
      type: DT_INT32
    }
  }
  attr {
    key: "value"
    value {
      tensor {
        dtype: DT_INT32
        tensor_shape {
        }
        int_val: 3
      }
    }
  }
}
node {
  name: "pascalvoc_2007_data_provider/case/cond/cond_jpeg/decode_image/cond_jpeg/cond_png/cond_gif/check_gif_channels/y"
  op: "Const"
  input: "^pascalvoc_2007_data_provider/case/Assert/AssertGuard/Merge"
  input: "^pascalvoc_2007_data_provider/case/cond/cond_jpeg/decode_image/cond_jpeg/cond_png/cond_gif/switch_t"
  device: "/device:CPU:0"
  attr {
    key: "_output_shapes"
    value {
      list {
        shape {
        }
      }
    }
  }
  attr {
    key: "dtype"
    value {
      type: DT_INT32
    }
  }
  attr {
    key: "value"
    value {
      tensor {
        dtype: DT_INT32
        tensor_shape {
        }
        int_val: 1
      }
    }
  }
}
node {
  name: "pascalvoc_2007_data_provider/case/cond/cond_jpeg/decode_image/cond_jpeg/cond_png/cond_gif/check_gif_channels"
  op: "NotEqual"
  input: "pascalvoc_2007_data_provider/case/cond/cond_jpeg/decode_image/cond_jpeg/cond_png/cond_gif/check_gif_channels/x"
  input: "pascalvoc_2007_data_provider/case/cond/cond_jpeg/decode_image/cond_jpeg/cond_png/cond_gif/check_gif_channels/y"
  device: "/device:CPU:0"
  attr {
    key: "T"
    value {
      type: DT_INT32
    }
  }
  attr {
    key: "_output_shapes"
    value {
      list {
        shape {
        }
      }
    }
  }
}
node {
  name: "pascalvoc_2007_data_provider/case/cond/cond_jpeg/decode_image/cond_jpeg/cond_png/cond_gif/check_gif_channels_1/x"
  op: "Const"
  input: "^pascalvoc_2007_data_provider/case/Assert/AssertGuard/Merge"
  input: "^pascalvoc_2007_data_provider/case/cond/cond_jpeg/decode_image/cond_jpeg/cond_png/cond_gif/switch_t"
  device: "/device:CPU:0"
  attr {
    key: "_output_shapes"
    value {
      list {
        shape {
        }
      }
    }
  }
  attr {
    key: "dtype"
    value {
      type: DT_INT32
    }
  }
  attr {
    key: "value"
    value {
      tensor {
        dtype: DT_INT32
        tensor_shape {
        }
        int_val: 3
      }
    }
  }
}
node {
  name: "pascalvoc_2007_data_provider/case/cond/cond_jpeg/decode_image/cond_jpeg/cond_png/cond_gif/check_gif_channels_1/y"
  op: "Const"
  input: "^pascalvoc_2007_data_provider/case/Assert/AssertGuard/Merge"
  input: "^pascalvoc_2007_data_provider/case/cond/cond_jpeg/decode_image/cond_jpeg/cond_png/cond_gif/switch_t"
  device: "/device:CPU:0"
  attr {
    key: "_output_shapes"
    value {
      list {
        shape {
        }
      }
    }
  }
  attr {
    key: "dtype"
    value {
      type: DT_INT32
    }
  }
  attr {
    key: "value"
    value {
      tensor {
        dtype: DT_INT32
        tensor_shape {
        }
        int_val: 4
      }
    }
  }
}
node {
  name: "pascalvoc_2007_data_provider/case/cond/cond_jpeg/decode_image/cond_jpeg/cond_png/cond_gif/check_gif_channels_1"
  op: "NotEqual"
  input: "pascalvoc_2007_data_provider/case/cond/cond_jpeg/decode_image/cond_jpeg/cond_png/cond_gif/check_gif_channels_1/x"
  input: "pascalvoc_2007_data_provider/case/cond/cond_jpeg/decode_image/cond_jpeg/cond_png/cond_gif/check_gif_channels_1/y"
  device: "/device:CPU:0"
  attr {
    key: "T"
    value {
      type: DT_INT32
    }
  }
  attr {
    key: "_output_shapes"
    value {
      list {
        shape {
        }
      }
    }
  }
}
node {
  name: "pascalvoc_2007_data_provider/case/cond/cond_jpeg/decode_image/cond_jpeg/cond_png/cond_gif/LogicalAnd"
  op: "LogicalAnd"
  input: "pascalvoc_2007_data_provider/case/cond/cond_jpeg/decode_image/cond_jpeg/cond_png/cond_gif/check_gif_channels"
  input: "pascalvoc_2007_data_provider/case/cond/cond_jpeg/decode_image/cond_jpeg/cond_png/cond_gif/check_gif_channels_1"
  device: "/device:CPU:0"
  attr {
    key: "_output_shapes"
    value {
      list {
        shape {
        }
      }
    }
  }
}
node {
  name: "pascalvoc_2007_data_provider/case/cond/cond_jpeg/decode_image/cond_jpeg/cond_png/cond_gif/Assert/Const"
  op: "Const"
  input: "^pascalvoc_2007_data_provider/case/Assert/AssertGuard/Merge"
  input: "^pascalvoc_2007_data_provider/case/cond/cond_jpeg/decode_image/cond_jpeg/cond_png/cond_gif/switch_t"
  device: "/device:CPU:0"
  attr {
    key: "_output_shapes"
    value {
      list {
        shape {
        }
      }
    }
  }
  attr {
    key: "dtype"
    value {
      type: DT_STRING
    }
  }
  attr {
    key: "value"
    value {
      tensor {
        dtype: DT_STRING
        tensor_shape {
        }
        string_val: "Channels must be in (None, 0, 3) when decoding GIF images"
      }
    }
  }
}
node {
  name: "pascalvoc_2007_data_provider/case/cond/cond_jpeg/decode_image/cond_jpeg/cond_png/cond_gif/Assert/Assert/data_0"
  op: "Const"
  input: "^pascalvoc_2007_data_provider/case/Assert/AssertGuard/Merge"
  input: "^pascalvoc_2007_data_provider/case/cond/cond_jpeg/decode_image/cond_jpeg/cond_png/cond_gif/switch_t"
  device: "/device:CPU:0"
  attr {
    key: "_output_shapes"
    value {
      list {
        shape {
        }
      }
    }
  }
  attr {
    key: "dtype"
    value {
      type: DT_STRING
    }
  }
  attr {
    key: "value"
    value {
      tensor {
        dtype: DT_STRING
        tensor_shape {
        }
        string_val: "Channels must be in (None, 0, 3) when decoding GIF images"
      }
    }
  }
}
node {
  name: "pascalvoc_2007_data_provider/case/cond/cond_jpeg/decode_image/cond_jpeg/cond_png/cond_gif/Assert/Assert"
  op: "Assert"
  input: "pascalvoc_2007_data_provider/case/cond/cond_jpeg/decode_image/cond_jpeg/cond_png/cond_gif/LogicalAnd"
  input: "pascalvoc_2007_data_provider/case/cond/cond_jpeg/decode_image/cond_jpeg/cond_png/cond_gif/Assert/Assert/data_0"
  device: "/device:CPU:0"
  attr {
    key: "T"
    value {
      list {
        type: DT_STRING
      }
    }
  }
  attr {
    key: "summarize"
    value {
      i: 3
    }
  }
}
node {
  name: "pascalvoc_2007_data_provider/case/cond/cond_jpeg/decode_image/cond_jpeg/cond_png/cond_gif/DecodeGif"
  op: "DecodeGif"
  input: "pascalvoc_2007_data_provider/case/cond/cond_jpeg/decode_image/cond_jpeg/cond_png/cond_gif/DecodeGif/Switch_1:1"
  input: "^pascalvoc_2007_data_provider/case/Assert/AssertGuard/Merge"
  input: "^pascalvoc_2007_data_provider/case/cond/cond_jpeg/decode_image/cond_jpeg/cond_png/cond_gif/Assert/Assert"
  device: "/device:CPU:0"
  attr {
    key: "_output_shapes"
    value {
      list {
        shape {
          dim {
            size: -1
          }
          dim {
            size: -1
          }
          dim {
            size: -1
          }
          dim {
            size: 3
          }
        }
      }
    }
  }
}
node {
  name: "pascalvoc_2007_data_provider/case/cond/cond_jpeg/decode_image/cond_jpeg/cond_png/cond_gif/DecodeGif/Switch"
  op: "Switch"
  input: "pascalvoc_2007_data_provider/case/cond/cond_jpeg/decode_image/cond_jpeg/is_png/Substr/Switch"
  input: "pascalvoc_2007_data_provider/case/cond/cond_jpeg/decode_image/cond_jpeg/cond_png/pred_id"
  device: "/device:CPU:0"
  attr {
    key: "T"
    value {
      type: DT_STRING
    }
  }
  attr {
    key: "_class"
    value {
      list {
        s: "loc:@pascalvoc_2007_data_provider/Reshape_1"
      }
    }
  }
  attr {
    key: "_output_shapes"
    value {
      list {
        shape {
        }
        shape {
        }
      }
    }
  }
}
node {
  name: "pascalvoc_2007_data_provider/case/cond/cond_jpeg/decode_image/cond_jpeg/cond_png/cond_gif/DecodeGif/Switch_1"
  op: "Switch"
  input: "pascalvoc_2007_data_provider/case/cond/cond_jpeg/decode_image/cond_jpeg/cond_png/cond_gif/DecodeGif/Switch"
  input: "pascalvoc_2007_data_provider/case/cond/cond_jpeg/decode_image/cond_jpeg/cond_png/cond_gif/pred_id"
  device: "/device:CPU:0"
  attr {
    key: "T"
    value {
      type: DT_STRING
    }
  }
  attr {
    key: "_class"
    value {
      list {
        s: "loc:@pascalvoc_2007_data_provider/Reshape_1"
      }
    }
  }
  attr {
    key: "_output_shapes"
    value {
      list {
        shape {
        }
        shape {
        }
      }
    }
  }
}
node {
  name: "pascalvoc_2007_data_provider/case/cond/cond_jpeg/decode_image/cond_jpeg/cond_png/cond_gif/Identity"
  op: "Identity"
  input: "pascalvoc_2007_data_provider/case/cond/cond_jpeg/decode_image/cond_jpeg/cond_png/cond_gif/DecodeGif"
  device: "/device:CPU:0"
  attr {
    key: "T"
    value {
      type: DT_UINT8
    }
  }
  attr {
    key: "_output_shapes"
    value {
      list {
        shape {
          dim {
            size: -1
          }
          dim {
            size: -1
          }
          dim {
            size: -1
          }
          dim {
            size: 3
          }
        }
      }
    }
  }
}
node {
  name: "pascalvoc_2007_data_provider/case/cond/cond_jpeg/decode_image/cond_jpeg/cond_png/cond_gif/Substr/pos"
  op: "Const"
  input: "^pascalvoc_2007_data_provider/case/Assert/AssertGuard/Merge"
  input: "^pascalvoc_2007_data_provider/case/cond/cond_jpeg/decode_image/cond_jpeg/cond_png/cond_gif/switch_f"
  device: "/device:CPU:0"
  attr {
    key: "_output_shapes"
    value {
      list {
        shape {
        }
      }
    }
  }
  attr {
    key: "dtype"
    value {
      type: DT_INT32
    }
  }
  attr {
    key: "value"
    value {
      tensor {
        dtype: DT_INT32
        tensor_shape {
        }
        int_val: 0
      }
    }
  }
}
node {
  name: "pascalvoc_2007_data_provider/case/cond/cond_jpeg/decode_image/cond_jpeg/cond_png/cond_gif/Substr/len"
  op: "Const"
  input: "^pascalvoc_2007_data_provider/case/Assert/AssertGuard/Merge"
  input: "^pascalvoc_2007_data_provider/case/cond/cond_jpeg/decode_image/cond_jpeg/cond_png/cond_gif/switch_f"
  device: "/device:CPU:0"
  attr {
    key: "_output_shapes"
    value {
      list {
        shape {
        }
      }
    }
  }
  attr {
    key: "dtype"
    value {
      type: DT_INT32
    }
  }
  attr {
    key: "value"
    value {
      tensor {
        dtype: DT_INT32
        tensor_shape {
        }
        int_val: 2
      }
    }
  }
}
node {
  name: "pascalvoc_2007_data_provider/case/cond/cond_jpeg/decode_image/cond_jpeg/cond_png/cond_gif/Substr"
  op: "Substr"
  input: "pascalvoc_2007_data_provider/case/cond/cond_jpeg/decode_image/cond_jpeg/cond_png/cond_gif/Substr/Switch"
  input: "pascalvoc_2007_data_provider/case/cond/cond_jpeg/decode_image/cond_jpeg/cond_png/cond_gif/Substr/pos"
  input: "pascalvoc_2007_data_provider/case/cond/cond_jpeg/decode_image/cond_jpeg/cond_png/cond_gif/Substr/len"
  device: "/device:CPU:0"
  attr {
    key: "T"
    value {
      type: DT_INT32
    }
  }
  attr {
    key: "_output_shapes"
    value {
      list {
        shape {
        }
      }
    }
  }
  attr {
    key: "unit"
    value {
      s: "BYTE"
    }
  }
}
node {
  name: "pascalvoc_2007_data_provider/case/cond/cond_jpeg/decode_image/cond_jpeg/cond_png/cond_gif/Substr/Switch"
  op: "Switch"
  input: "pascalvoc_2007_data_provider/case/cond/cond_jpeg/decode_image/cond_jpeg/cond_png/cond_gif/DecodeGif/Switch"
  input: "pascalvoc_2007_data_provider/case/cond/cond_jpeg/decode_image/cond_jpeg/cond_png/cond_gif/pred_id"
  device: "/device:CPU:0"
  attr {
    key: "T"
    value {
      type: DT_STRING
    }
  }
  attr {
    key: "_class"
    value {
      list {
        s: "loc:@pascalvoc_2007_data_provider/Reshape_1"
      }
    }
  }
  attr {
    key: "_output_shapes"
    value {
      list {
        shape {
        }
        shape {
        }
      }
    }
  }
}
node {
  name: "pascalvoc_2007_data_provider/case/cond/cond_jpeg/decode_image/cond_jpeg/cond_png/cond_gif/is_bmp/y"
  op: "Const"
  input: "^pascalvoc_2007_data_provider/case/Assert/AssertGuard/Merge"
  input: "^pascalvoc_2007_data_provider/case/cond/cond_jpeg/decode_image/cond_jpeg/cond_png/cond_gif/switch_f"
  device: "/device:CPU:0"
  attr {
    key: "_output_shapes"
    value {
      list {
        shape {
        }
      }
    }
  }
  attr {
    key: "dtype"
    value {
      type: DT_STRING
    }
  }
  attr {
    key: "value"
    value {
      tensor {
        dtype: DT_STRING
        tensor_shape {
        }
        string_val: "BM"
      }
    }
  }
}
node {
  name: "pascalvoc_2007_data_provider/case/cond/cond_jpeg/decode_image/cond_jpeg/cond_png/cond_gif/is_bmp"
  op: "Equal"
  input: "pascalvoc_2007_data_provider/case/cond/cond_jpeg/decode_image/cond_jpeg/cond_png/cond_gif/Substr"
  input: "pascalvoc_2007_data_provider/case/cond/cond_jpeg/decode_image/cond_jpeg/cond_png/cond_gif/is_bmp/y"
  device: "/device:CPU:0"
  attr {
    key: "T"
    value {
      type: DT_STRING
    }
  }
  attr {
    key: "_output_shapes"
    value {
      list {
        shape {
        }
      }
    }
  }
}
node {
  name: "pascalvoc_2007_data_provider/case/cond/cond_jpeg/decode_image/cond_jpeg/cond_png/cond_gif/Assert_1/Const"
  op: "Const"
  input: "^pascalvoc_2007_data_provider/case/Assert/AssertGuard/Merge"
  input: "^pascalvoc_2007_data_provider/case/cond/cond_jpeg/decode_image/cond_jpeg/cond_png/cond_gif/switch_f"
  device: "/device:CPU:0"
  attr {
    key: "_output_shapes"
    value {
      list {
        shape {
        }
      }
    }
  }
  attr {
    key: "dtype"
    value {
      type: DT_STRING
    }
  }
  attr {
    key: "value"
    value {
      tensor {
        dtype: DT_STRING
        tensor_shape {
        }
        string_val: "Unable to decode bytes as JPEG, PNG, GIF, or BMP"
      }
    }
  }
}
node {
  name: "pascalvoc_2007_data_provider/case/cond/cond_jpeg/decode_image/cond_jpeg/cond_png/cond_gif/Assert_1/Assert/data_0"
  op: "Const"
  input: "^pascalvoc_2007_data_provider/case/Assert/AssertGuard/Merge"
  input: "^pascalvoc_2007_data_provider/case/cond/cond_jpeg/decode_image/cond_jpeg/cond_png/cond_gif/switch_f"
  device: "/device:CPU:0"
  attr {
    key: "_output_shapes"
    value {
      list {
        shape {
        }
      }
    }
  }
  attr {
    key: "dtype"
    value {
      type: DT_STRING
    }
  }
  attr {
    key: "value"
    value {
      tensor {
        dtype: DT_STRING
        tensor_shape {
        }
        string_val: "Unable to decode bytes as JPEG, PNG, GIF, or BMP"
      }
    }
  }
}
node {
  name: "pascalvoc_2007_data_provider/case/cond/cond_jpeg/decode_image/cond_jpeg/cond_png/cond_gif/Assert_1/Assert"
  op: "Assert"
  input: "pascalvoc_2007_data_provider/case/cond/cond_jpeg/decode_image/cond_jpeg/cond_png/cond_gif/is_bmp"
  input: "pascalvoc_2007_data_provider/case/cond/cond_jpeg/decode_image/cond_jpeg/cond_png/cond_gif/Assert_1/Assert/data_0"
  device: "/device:CPU:0"
  attr {
    key: "T"
    value {
      list {
        type: DT_STRING
      }
    }
  }
  attr {
    key: "summarize"
    value {
      i: 3
    }
  }
}
node {
  name: "pascalvoc_2007_data_provider/case/cond/cond_jpeg/decode_image/cond_jpeg/cond_png/cond_gif/check_channels/x"
  op: "Const"
  input: "^pascalvoc_2007_data_provider/case/Assert/AssertGuard/Merge"
  input: "^pascalvoc_2007_data_provider/case/cond/cond_jpeg/decode_image/cond_jpeg/cond_png/cond_gif/switch_f"
  device: "/device:CPU:0"
  attr {
    key: "_output_shapes"
    value {
      list {
        shape {
        }
      }
    }
  }
  attr {
    key: "dtype"
    value {
      type: DT_INT32
    }
  }
  attr {
    key: "value"
    value {
      tensor {
        dtype: DT_INT32
        tensor_shape {
        }
        int_val: 3
      }
    }
  }
}
node {
  name: "pascalvoc_2007_data_provider/case/cond/cond_jpeg/decode_image/cond_jpeg/cond_png/cond_gif/check_channels/y"
  op: "Const"
  input: "^pascalvoc_2007_data_provider/case/Assert/AssertGuard/Merge"
  input: "^pascalvoc_2007_data_provider/case/cond/cond_jpeg/decode_image/cond_jpeg/cond_png/cond_gif/switch_f"
  device: "/device:CPU:0"
  attr {
    key: "_output_shapes"
    value {
      list {
        shape {
        }
      }
    }
  }
  attr {
    key: "dtype"
    value {
      type: DT_INT32
    }
  }
  attr {
    key: "value"
    value {
      tensor {
        dtype: DT_INT32
        tensor_shape {
        }
        int_val: 1
      }
    }
  }
}
node {
  name: "pascalvoc_2007_data_provider/case/cond/cond_jpeg/decode_image/cond_jpeg/cond_png/cond_gif/check_channels"
  op: "NotEqual"
  input: "pascalvoc_2007_data_provider/case/cond/cond_jpeg/decode_image/cond_jpeg/cond_png/cond_gif/check_channels/x"
  input: "pascalvoc_2007_data_provider/case/cond/cond_jpeg/decode_image/cond_jpeg/cond_png/cond_gif/check_channels/y"
  device: "/device:CPU:0"
  attr {
    key: "T"
    value {
      type: DT_INT32
    }
  }
  attr {
    key: "_output_shapes"
    value {
      list {
        shape {
        }
      }
    }
  }
}
node {
  name: "pascalvoc_2007_data_provider/case/cond/cond_jpeg/decode_image/cond_jpeg/cond_png/cond_gif/Assert_2/Const"
  op: "Const"
  input: "^pascalvoc_2007_data_provider/case/Assert/AssertGuard/Merge"
  input: "^pascalvoc_2007_data_provider/case/cond/cond_jpeg/decode_image/cond_jpeg/cond_png/cond_gif/switch_f"
  device: "/device:CPU:0"
  attr {
    key: "_output_shapes"
    value {
      list {
        shape {
        }
      }
    }
  }
  attr {
    key: "dtype"
    value {
      type: DT_STRING
    }
  }
  attr {
    key: "value"
    value {
      tensor {
        dtype: DT_STRING
        tensor_shape {
        }
        string_val: "Channels must be in (None, 0, 3) when decoding BMP images"
      }
    }
  }
}
node {
  name: "pascalvoc_2007_data_provider/case/cond/cond_jpeg/decode_image/cond_jpeg/cond_png/cond_gif/Assert_2/Assert/data_0"
  op: "Const"
  input: "^pascalvoc_2007_data_provider/case/Assert/AssertGuard/Merge"
  input: "^pascalvoc_2007_data_provider/case/cond/cond_jpeg/decode_image/cond_jpeg/cond_png/cond_gif/switch_f"
  device: "/device:CPU:0"
  attr {
    key: "_output_shapes"
    value {
      list {
        shape {
        }
      }
    }
  }
  attr {
    key: "dtype"
    value {
      type: DT_STRING
    }
  }
  attr {
    key: "value"
    value {
      tensor {
        dtype: DT_STRING
        tensor_shape {
        }
        string_val: "Channels must be in (None, 0, 3) when decoding BMP images"
      }
    }
  }
}
node {
  name: "pascalvoc_2007_data_provider/case/cond/cond_jpeg/decode_image/cond_jpeg/cond_png/cond_gif/Assert_2/Assert"
  op: "Assert"
  input: "pascalvoc_2007_data_provider/case/cond/cond_jpeg/decode_image/cond_jpeg/cond_png/cond_gif/check_channels"
  input: "pascalvoc_2007_data_provider/case/cond/cond_jpeg/decode_image/cond_jpeg/cond_png/cond_gif/Assert_2/Assert/data_0"
  device: "/device:CPU:0"
  attr {
    key: "T"
    value {
      list {
        type: DT_STRING
      }
    }
  }
  attr {
    key: "summarize"
    value {
      i: 3
    }
  }
}
node {
  name: "pascalvoc_2007_data_provider/case/cond/cond_jpeg/decode_image/cond_jpeg/cond_png/cond_gif/DecodeBmp"
  op: "DecodeBmp"
  input: "pascalvoc_2007_data_provider/case/cond/cond_jpeg/decode_image/cond_jpeg/cond_png/cond_gif/Substr/Switch"
  input: "^pascalvoc_2007_data_provider/case/Assert/AssertGuard/Merge"
  input: "^pascalvoc_2007_data_provider/case/cond/cond_jpeg/decode_image/cond_jpeg/cond_png/cond_gif/Assert_1/Assert"
  input: "^pascalvoc_2007_data_provider/case/cond/cond_jpeg/decode_image/cond_jpeg/cond_png/cond_gif/Assert_2/Assert"
  device: "/device:CPU:0"
  attr {
    key: "_output_shapes"
    value {
      list {
        shape {
          dim {
            size: -1
          }
          dim {
            size: -1
          }
          dim {
            size: -1
          }
        }
      }
    }
  }
  attr {
    key: "channels"
    value {
      i: 0
    }
  }
}
node {
  name: "pascalvoc_2007_data_provider/case/cond/cond_jpeg/decode_image/cond_jpeg/cond_png/cond_gif/Identity_1"
  op: "Identity"
  input: "pascalvoc_2007_data_provider/case/cond/cond_jpeg/decode_image/cond_jpeg/cond_png/cond_gif/DecodeBmp"
  device: "/device:CPU:0"
  attr {
    key: "T"
    value {
      type: DT_UINT8
    }
  }
  attr {
    key: "_output_shapes"
    value {
      list {
        shape {
          dim {
            size: -1
          }
          dim {
            size: -1
          }
          dim {
            size: -1
          }
        }
      }
    }
  }
}
node {
  name: "pascalvoc_2007_data_provider/case/cond/cond_jpeg/decode_image/cond_jpeg/cond_png/cond_gif/Merge"
  op: "Merge"
  input: "pascalvoc_2007_data_provider/case/cond/cond_jpeg/decode_image/cond_jpeg/cond_png/cond_gif/Identity_1"
  input: "pascalvoc_2007_data_provider/case/cond/cond_jpeg/decode_image/cond_jpeg/cond_png/cond_gif/Identity"
  device: "/device:CPU:0"
  attr {
    key: "N"
    value {
      i: 2
    }
  }
  attr {
    key: "T"
    value {
      type: DT_UINT8
    }
  }
  attr {
    key: "_output_shapes"
    value {
      list {
        shape {
          unknown_rank: true
        }
        shape {
        }
      }
    }
  }
}
node {
  name: "pascalvoc_2007_data_provider/case/cond/cond_jpeg/decode_image/cond_jpeg/cond_png/Merge"
  op: "Merge"
  input: "pascalvoc_2007_data_provider/case/cond/cond_jpeg/decode_image/cond_jpeg/cond_png/cond_gif/Merge"
  input: "pascalvoc_2007_data_provider/case/cond/cond_jpeg/decode_image/cond_jpeg/cond_png/Identity"
  device: "/device:CPU:0"
  attr {
    key: "N"
    value {
      i: 2
    }
  }
  attr {
    key: "T"
    value {
      type: DT_UINT8
    }
  }
  attr {
    key: "_output_shapes"
    value {
      list {
        shape {
          unknown_rank: true
        }
        shape {
        }
      }
    }
  }
}
node {
  name: "pascalvoc_2007_data_provider/case/cond/cond_jpeg/decode_image/cond_jpeg/Merge"
  op: "Merge"
  input: "pascalvoc_2007_data_provider/case/cond/cond_jpeg/decode_image/cond_jpeg/cond_png/Merge"
  input: "pascalvoc_2007_data_provider/case/cond/cond_jpeg/decode_image/cond_jpeg/Identity"
  device: "/device:CPU:0"
  attr {
    key: "N"
    value {
      i: 2
    }
  }
  attr {
    key: "T"
    value {
      type: DT_UINT8
    }
  }
  attr {
    key: "_output_shapes"
    value {
      list {
        shape {
          unknown_rank: true
        }
        shape {
        }
      }
    }
  }
}
node {
  name: "pascalvoc_2007_data_provider/case/cond/cond_jpeg/Merge"
  op: "Merge"
  input: "pascalvoc_2007_data_provider/case/cond/cond_jpeg/decode_image/cond_jpeg/Merge"
  input: "pascalvoc_2007_data_provider/case/cond/cond_jpeg/DecodeJpeg"
  device: "/device:CPU:0"
  attr {
    key: "N"
    value {
      i: 2
    }
  }
  attr {
    key: "T"
    value {
      type: DT_UINT8
    }
  }
  attr {
    key: "_output_shapes"
    value {
      list {
        shape {
          unknown_rank: true
        }
        shape {
        }
      }
    }
  }
}
node {
  name: "pascalvoc_2007_data_provider/case/cond/Merge"
  op: "Merge"
  input: "pascalvoc_2007_data_provider/case/cond/cond_jpeg/Merge"
  input: "pascalvoc_2007_data_provider/case/cond/DecodeRaw"
  device: "/device:CPU:0"
  attr {
    key: "N"
    value {
      i: 2
    }
  }
  attr {
    key: "T"
    value {
      type: DT_UINT8
    }
  }
  attr {
    key: "_output_shapes"
    value {
      list {
        shape {
          dim {
            size: -1
          }
          dim {
            size: -1
          }
          dim {
            size: 3
          }
        }
        shape {
        }
      }
    }
  }
}
node {
  name: "pascalvoc_2007_data_provider/SparseToDense_1/default_value"
  op: "Const"
  device: "/device:CPU:0"
  attr {
    key: "_output_shapes"
    value {
      list {
        shape {
        }
      }
    }
  }
  attr {
    key: "dtype"
    value {
      type: DT_INT64
    }
  }
  attr {
    key: "value"
    value {
      tensor {
        dtype: DT_INT64
        tensor_shape {
        }
        int64_val: 0
      }
    }
  }
}
node {
  name: "pascalvoc_2007_data_provider/SparseToDense_1"
  op: "SparseToDense"
  input: "pascalvoc_2007_data_provider/ParseSingleExample/ParseSingleExample"
  input: "pascalvoc_2007_data_provider/ParseSingleExample/ParseSingleExample:14"
  input: "pascalvoc_2007_data_provider/ParseSingleExample/ParseSingleExample:7"
  input: "pascalvoc_2007_data_provider/SparseToDense_1/default_value"
  device: "/device:CPU:0"
  attr {
    key: "T"
    value {
      type: DT_INT64
    }
  }
  attr {
    key: "Tindices"
    value {
      type: DT_INT64
    }
  }
  attr {
    key: "_output_shapes"
    value {
      list {
        shape {
          dim {
            size: -1
          }
        }
      }
    }
  }
  attr {
    key: "validate_indices"
    value {
      b: true
    }
  }
}
node {
  name: "pascalvoc_2007_data_provider/SparseToDense_2/default_value"
  op: "Const"
  device: "/device:CPU:0"
  attr {
    key: "_output_shapes"
    value {
      list {
        shape {
        }
      }
    }
  }
  attr {
    key: "dtype"
    value {
      type: DT_INT64
    }
  }
  attr {
    key: "value"
    value {
      tensor {
        dtype: DT_INT64
        tensor_shape {
        }
        int64_val: 0
      }
    }
  }
}
node {
  name: "pascalvoc_2007_data_provider/SparseToDense_2"
  op: "SparseToDense"
  input: "pascalvoc_2007_data_provider/ParseSingleExample/ParseSingleExample:2"
  input: "pascalvoc_2007_data_provider/ParseSingleExample/ParseSingleExample:16"
  input: "pascalvoc_2007_data_provider/ParseSingleExample/ParseSingleExample:9"
  input: "pascalvoc_2007_data_provider/SparseToDense_2/default_value"
  device: "/device:CPU:0"
  attr {
    key: "T"
    value {
      type: DT_INT64
    }
  }
  attr {
    key: "Tindices"
    value {
      type: DT_INT64
    }
  }
  attr {
    key: "_output_shapes"
    value {
      list {
        shape {
          dim {
            size: -1
          }
        }
      }
    }
  }
  attr {
    key: "validate_indices"
    value {
      b: true
    }
  }
}
node {
  name: "pascalvoc_2007_data_provider/ExpandDims/dim"
  op: "Const"
  device: "/device:CPU:0"
  attr {
    key: "_output_shapes"
    value {
      list {
        shape {
        }
      }
    }
  }
  attr {
    key: "dtype"
    value {
      type: DT_INT32
    }
  }
  attr {
    key: "value"
    value {
      tensor {
        dtype: DT_INT32
        tensor_shape {
        }
        int_val: 0
      }
    }
  }
}
node {
  name: "pascalvoc_2007_data_provider/ExpandDims"
  op: "ExpandDims"
  input: "pascalvoc_2007_data_provider/ParseSingleExample/ParseSingleExample:13"
  input: "pascalvoc_2007_data_provider/ExpandDims/dim"
  device: "/device:CPU:0"
  attr {
    key: "T"
    value {
      type: DT_FLOAT
    }
  }
  attr {
    key: "Tdim"
    value {
      type: DT_INT32
    }
  }
  attr {
    key: "_output_shapes"
    value {
      list {
        shape {
          dim {
            size: 1
          }
          dim {
            size: -1
          }
        }
      }
    }
  }
}
node {
  name: "pascalvoc_2007_data_provider/ExpandDims_1/dim"
  op: "Const"
  device: "/device:CPU:0"
  attr {
    key: "_output_shapes"
    value {
      list {
        shape {
        }
      }
    }
  }
  attr {
    key: "dtype"
    value {
      type: DT_INT32
    }
  }
  attr {
    key: "value"
    value {
      tensor {
        dtype: DT_INT32
        tensor_shape {
        }
        int_val: 0
      }
    }
  }
}
node {
  name: "pascalvoc_2007_data_provider/ExpandDims_1"
  op: "ExpandDims"
  input: "pascalvoc_2007_data_provider/ParseSingleExample/ParseSingleExample:11"
  input: "pascalvoc_2007_data_provider/ExpandDims_1/dim"
  device: "/device:CPU:0"
  attr {
    key: "T"
    value {
      type: DT_FLOAT
    }
  }
  attr {
    key: "Tdim"
    value {
      type: DT_INT32
    }
  }
  attr {
    key: "_output_shapes"
    value {
      list {
        shape {
          dim {
            size: 1
          }
          dim {
            size: -1
          }
        }
      }
    }
  }
}
node {
  name: "pascalvoc_2007_data_provider/ExpandDims_2/dim"
  op: "Const"
  device: "/device:CPU:0"
  attr {
    key: "_output_shapes"
    value {
      list {
        shape {
        }
      }
    }
  }
  attr {
    key: "dtype"
    value {
      type: DT_INT32
    }
  }
  attr {
    key: "value"
    value {
      tensor {
        dtype: DT_INT32
        tensor_shape {
        }
        int_val: 0
      }
    }
  }
}
node {
  name: "pascalvoc_2007_data_provider/ExpandDims_2"
  op: "ExpandDims"
  input: "pascalvoc_2007_data_provider/ParseSingleExample/ParseSingleExample:12"
  input: "pascalvoc_2007_data_provider/ExpandDims_2/dim"
  device: "/device:CPU:0"
  attr {
    key: "T"
    value {
      type: DT_FLOAT
    }
  }
  attr {
    key: "Tdim"
    value {
      type: DT_INT32
    }
  }
  attr {
    key: "_output_shapes"
    value {
      list {
        shape {
          dim {
            size: 1
          }
          dim {
            size: -1
          }
        }
      }
    }
  }
}
node {
  name: "pascalvoc_2007_data_provider/ExpandDims_3/dim"
  op: "Const"
  device: "/device:CPU:0"
  attr {
    key: "_output_shapes"
    value {
      list {
        shape {
        }
      }
    }
  }
  attr {
    key: "dtype"
    value {
      type: DT_INT32
    }
  }
  attr {
    key: "value"
    value {
      tensor {
        dtype: DT_INT32
        tensor_shape {
        }
        int_val: 0
      }
    }
  }
}
node {
  name: "pascalvoc_2007_data_provider/ExpandDims_3"
  op: "ExpandDims"
  input: "pascalvoc_2007_data_provider/ParseSingleExample/ParseSingleExample:10"
  input: "pascalvoc_2007_data_provider/ExpandDims_3/dim"
  device: "/device:CPU:0"
  attr {
    key: "T"
    value {
      type: DT_FLOAT
    }
  }
  attr {
    key: "Tdim"
    value {
      type: DT_INT32
    }
  }
  attr {
    key: "_output_shapes"
    value {
      list {
        shape {
          dim {
            size: 1
          }
          dim {
            size: -1
          }
        }
      }
    }
  }
}
node {
  name: "pascalvoc_2007_data_provider/concat/axis"
  op: "Const"
  device: "/device:CPU:0"
  attr {
    key: "_output_shapes"
    value {
      list {
        shape {
        }
      }
    }
  }
  attr {
    key: "dtype"
    value {
      type: DT_INT32
    }
  }
  attr {
    key: "value"
    value {
      tensor {
        dtype: DT_INT32
        tensor_shape {
        }
        int_val: 0
      }
    }
  }
}
node {
  name: "pascalvoc_2007_data_provider/concat"
  op: "ConcatV2"
  input: "pascalvoc_2007_data_provider/ExpandDims"
  input: "pascalvoc_2007_data_provider/ExpandDims_1"
  input: "pascalvoc_2007_data_provider/ExpandDims_2"
  input: "pascalvoc_2007_data_provider/ExpandDims_3"
  input: "pascalvoc_2007_data_provider/concat/axis"
  device: "/device:CPU:0"
  attr {
    key: "N"
    value {
      i: 4
    }
  }
  attr {
    key: "T"
    value {
      type: DT_FLOAT
    }
  }
  attr {
    key: "Tidx"
    value {
      type: DT_INT32
    }
  }
  attr {
    key: "_output_shapes"
    value {
      list {
        shape {
          dim {
            size: 4
          }
          dim {
            size: -1
          }
        }
      }
    }
  }
}
node {
  name: "pascalvoc_2007_data_provider/transpose/perm"
  op: "Const"
  device: "/device:CPU:0"
  attr {
    key: "_output_shapes"
    value {
      list {
        shape {
          dim {
            size: 2
          }
        }
      }
    }
  }
  attr {
    key: "dtype"
    value {
      type: DT_INT32
    }
  }
  attr {
    key: "value"
    value {
      tensor {
        dtype: DT_INT32
        tensor_shape {
          dim {
            size: 2
          }
        }
        tensor_content: "\001\000\000\000\000\000\000\000"
      }
    }
  }
}
node {
  name: "pascalvoc_2007_data_provider/transpose"
  op: "Transpose"
  input: "pascalvoc_2007_data_provider/concat"
  input: "pascalvoc_2007_data_provider/transpose/perm"
  device: "/device:CPU:0"
  attr {
    key: "T"
    value {
      type: DT_FLOAT
    }
  }
  attr {
    key: "Tperm"
    value {
      type: DT_INT32
    }
  }
  attr {
    key: "_output_shapes"
    value {
      list {
        shape {
          dim {
            size: -1
          }
          dim {
            size: 4
          }
        }
      }
    }
  }
}
node {
  name: "ssd_preprocessing_train/convert_image/Cast"
  op: "Cast"
  input: "pascalvoc_2007_data_provider/case/cond/Merge"
  device: "/device:CPU:0"
  attr {
    key: "DstT"
    value {
      type: DT_FLOAT
    }
  }
  attr {
    key: "SrcT"
    value {
      type: DT_UINT8
    }
  }
  attr {
    key: "Truncate"
    value {
      b: false
    }
  }
  attr {
    key: "_output_shapes"
    value {
      list {
        shape {
          dim {
            size: -1
          }
          dim {
            size: -1
          }
          dim {
            size: 3
          }
        }
      }
    }
  }
}
node {
  name: "ssd_preprocessing_train/convert_image/y"
  op: "Const"
  device: "/device:CPU:0"
  attr {
    key: "_output_shapes"
    value {
      list {
        shape {
        }
      }
    }
  }
  attr {
    key: "dtype"
    value {
      type: DT_FLOAT
    }
  }
  attr {
    key: "value"
    value {
      tensor {
        dtype: DT_FLOAT
        tensor_shape {
        }
        float_val: 0.0039215689
      }
    }
  }
}
node {
  name: "ssd_preprocessing_train/convert_image"
  op: "Mul"
  input: "ssd_preprocessing_train/convert_image/Cast"
  input: "ssd_preprocessing_train/convert_image/y"
  device: "/device:CPU:0"
  attr {
    key: "T"
    value {
      type: DT_FLOAT
    }
  }
  attr {
    key: "_output_shapes"
    value {
      list {
        shape {
          dim {
            size: -1
          }
          dim {
            size: -1
          }
          dim {
            size: 3
          }
        }
      }
    }
  }
}
node {
  name: "ssd_preprocessing_train/ExpandDims/dim"
  op: "Const"
  device: "/device:CPU:0"
  attr {
    key: "_output_shapes"
    value {
      list {
        shape {
        }
      }
    }
  }
  attr {
    key: "dtype"
    value {
      type: DT_INT32
    }
  }
  attr {
    key: "value"
    value {
      tensor {
        dtype: DT_INT32
        tensor_shape {
        }
        int_val: 0
      }
    }
  }
}
node {
  name: "ssd_preprocessing_train/ExpandDims"
  op: "ExpandDims"
  input: "ssd_preprocessing_train/convert_image"
  input: "ssd_preprocessing_train/ExpandDims/dim"
  device: "/device:CPU:0"
  attr {
    key: "T"
    value {
      type: DT_FLOAT
    }
  }
  attr {
    key: "Tdim"
    value {
      type: DT_INT32
    }
  }
  attr {
    key: "_output_shapes"
    value {
      list {
        shape {
          dim {
            size: 1
          }
          dim {
            size: -1
          }
          dim {
            size: -1
          }
          dim {
            size: 3
          }
        }
      }
    }
  }
}
node {
  name: "ssd_preprocessing_train/ExpandDims_1/dim"
  op: "Const"
  device: "/device:CPU:0"
  attr {
    key: "_output_shapes"
    value {
      list {
        shape {
        }
      }
    }
  }
  attr {
    key: "dtype"
    value {
      type: DT_INT32
    }
  }
  attr {
    key: "value"
    value {
      tensor {
        dtype: DT_INT32
        tensor_shape {
        }
        int_val: 0
      }
    }
  }
}
node {
  name: "ssd_preprocessing_train/ExpandDims_1"
  op: "ExpandDims"
  input: "pascalvoc_2007_data_provider/transpose"
  input: "ssd_preprocessing_train/ExpandDims_1/dim"
  device: "/device:CPU:0"
  attr {
    key: "T"
    value {
      type: DT_FLOAT
    }
  }
  attr {
    key: "Tdim"
    value {
      type: DT_INT32
    }
  }
  attr {
    key: "_output_shapes"
    value {
      list {
        shape {
          dim {
            size: 1
          }
          dim {
            size: -1
          }
          dim {
            size: 4
          }
        }
      }
    }
  }
}
node {
  name: "ssd_preprocessing_train/DrawBoundingBoxes"
  op: "DrawBoundingBoxes"
  input: "ssd_preprocessing_train/ExpandDims"
  input: "ssd_preprocessing_train/ExpandDims_1"
  device: "/device:CPU:0"
  attr {
    key: "T"
    value {
      type: DT_FLOAT
    }
  }
  attr {
    key: "_output_shapes"
    value {
      list {
        shape {
          dim {
            size: 1
          }
          dim {
            size: -1
          }
          dim {
            size: -1
          }
          dim {
            size: 3
          }
        }
      }
    }
  }
}
node {
  name: "ssd_preprocessing_train/image_with_bboxes/tag"
  op: "Const"
  device: "/device:CPU:0"
  attr {
    key: "_output_shapes"
    value {
      list {
        shape {
        }
      }
    }
  }
  attr {
    key: "dtype"
    value {
      type: DT_STRING
    }
  }
  attr {
    key: "value"
    value {
      tensor {
        dtype: DT_STRING
        tensor_shape {
        }
        string_val: "ssd_preprocessing_train/image_with_bboxes"
      }
    }
  }
}
node {
  name: "ssd_preprocessing_train/image_with_bboxes"
  op: "ImageSummary"
  input: "ssd_preprocessing_train/image_with_bboxes/tag"
  input: "ssd_preprocessing_train/DrawBoundingBoxes"
  device: "/device:CPU:0"
  attr {
    key: "T"
    value {
      type: DT_FLOAT
    }
  }
  attr {
    key: "_output_shapes"
    value {
      list {
        shape {
        }
      }
    }
  }
  attr {
    key: "bad_color"
    value {
      tensor {
        dtype: DT_UINT8
        tensor_shape {
          dim {
            size: 4
          }
        }
        int_val: 255
        int_val: 0
        int_val: 0
        int_val: 255
      }
    }
  }
  attr {
    key: "max_images"
    value {
      i: 3
    }
  }
}
node {
  name: "ssd_preprocessing_train/distorted_bounding_box_crop/Shape"
  op: "Shape"
  input: "ssd_preprocessing_train/convert_image"
  device: "/device:CPU:0"
  attr {
    key: "T"
    value {
      type: DT_FLOAT
    }
  }
  attr {
    key: "_output_shapes"
    value {
      list {
        shape {
          dim {
            size: 3
          }
        }
      }
    }
  }
  attr {
    key: "out_type"
    value {
      type: DT_INT32
    }
  }
}
node {
  name: "ssd_preprocessing_train/distorted_bounding_box_crop/ExpandDims/dim"
  op: "Const"
  device: "/device:CPU:0"
  attr {
    key: "_output_shapes"
    value {
      list {
        shape {
        }
      }
    }
  }
  attr {
    key: "dtype"
    value {
      type: DT_INT32
    }
  }
  attr {
    key: "value"
    value {
      tensor {
        dtype: DT_INT32
        tensor_shape {
        }
        int_val: 0
      }
    }
  }
}
node {
  name: "ssd_preprocessing_train/distorted_bounding_box_crop/ExpandDims"
  op: "ExpandDims"
  input: "pascalvoc_2007_data_provider/transpose"
  input: "ssd_preprocessing_train/distorted_bounding_box_crop/ExpandDims/dim"
  device: "/device:CPU:0"
  attr {
    key: "T"
    value {
      type: DT_FLOAT
    }
  }
  attr {
    key: "Tdim"
    value {
      type: DT_INT32
    }
  }
  attr {
    key: "_output_shapes"
    value {
      list {
        shape {
          dim {
            size: 1
          }
          dim {
            size: -1
          }
          dim {
            size: 4
          }
        }
      }
    }
  }
}
node {
  name: "ssd_preprocessing_train/distorted_bounding_box_crop/sample_distorted_bounding_box/SampleDistortedBoundingBoxV2/min_object_covered"
  op: "Const"
  device: "/device:CPU:0"
  attr {
    key: "_output_shapes"
    value {
      list {
        shape {
        }
      }
    }
  }
  attr {
    key: "dtype"
    value {
      type: DT_FLOAT
    }
  }
  attr {
    key: "value"
    value {
      tensor {
        dtype: DT_FLOAT
        tensor_shape {
        }
        float_val: 0.25
      }
    }
  }
}
node {
  name: "ssd_preprocessing_train/distorted_bounding_box_crop/sample_distorted_bounding_box/SampleDistortedBoundingBoxV2"
  op: "SampleDistortedBoundingBoxV2"
  input: "ssd_preprocessing_train/distorted_bounding_box_crop/Shape"
  input: "ssd_preprocessing_train/distorted_bounding_box_crop/ExpandDims"
  input: "ssd_preprocessing_train/distorted_bounding_box_crop/sample_distorted_bounding_box/SampleDistortedBoundingBoxV2/min_object_covered"
  device: "/device:CPU:0"
  attr {
    key: "T"
    value {
      type: DT_INT32
    }
  }
  attr {
    key: "_output_shapes"
    value {
      list {
        shape {
          dim {
            size: 3
          }
        }
        shape {
          dim {
            size: 3
          }
        }
        shape {
          dim {
            size: 1
          }
          dim {
            size: 1
          }
          dim {
            size: 4
          }
        }
      }
    }
  }
  attr {
    key: "area_range"
    value {
      list {
        f: 0.1
        f: 1.0
      }
    }
  }
  attr {
    key: "aspect_ratio_range"
    value {
      list {
        f: 0.60000002
        f: 1.67
      }
    }
  }
  attr {
    key: "max_attempts"
    value {
      i: 200
    }
  }
  attr {
    key: "seed"
    value {
      i: 0
    }
  }
  attr {
    key: "seed2"
    value {
      i: 0
    }
  }
  attr {
    key: "use_image_if_no_bounding_boxes"
    value {
      b: true
    }
  }
}
node {
  name: "ssd_preprocessing_train/distorted_bounding_box_crop/strided_slice/stack"
  op: "Const"
  device: "/device:CPU:0"
  attr {
    key: "_output_shapes"
    value {
      list {
        shape {
          dim {
            size: 2
          }
        }
      }
    }
  }
  attr {
    key: "dtype"
    value {
      type: DT_INT32
    }
  }
  attr {
    key: "value"
    value {
      tensor {
        dtype: DT_INT32
        tensor_shape {
          dim {
            size: 2
          }
        }
        tensor_content: "\000\000\000\000\000\000\000\000"
      }
    }
  }
}
node {
  name: "ssd_preprocessing_train/distorted_bounding_box_crop/strided_slice/stack_1"
  op: "Const"
  device: "/device:CPU:0"
  attr {
    key: "_output_shapes"
    value {
      list {
        shape {
          dim {
            size: 2
          }
        }
      }
    }
  }
  attr {
    key: "dtype"
    value {
      type: DT_INT32
    }
  }
  attr {
    key: "value"
    value {
      tensor {
        dtype: DT_INT32
        tensor_shape {
          dim {
            size: 2
          }
        }
        tensor_content: "\001\000\000\000\001\000\000\000"
      }
    }
  }
}
node {
  name: "ssd_preprocessing_train/distorted_bounding_box_crop/strided_slice/stack_2"
  op: "Const"
  device: "/device:CPU:0"
  attr {
    key: "_output_shapes"
    value {
      list {
        shape {
          dim {
            size: 2
          }
        }
      }
    }
  }
  attr {
    key: "dtype"
    value {
      type: DT_INT32
    }
  }
  attr {
    key: "value"
    value {
      tensor {
        dtype: DT_INT32
        tensor_shape {
          dim {
            size: 2
          }
        }
        tensor_content: "\001\000\000\000\001\000\000\000"
      }
    }
  }
}
node {
  name: "ssd_preprocessing_train/distorted_bounding_box_crop/strided_slice"
  op: "StridedSlice"
  input: "ssd_preprocessing_train/distorted_bounding_box_crop/sample_distorted_bounding_box/SampleDistortedBoundingBoxV2:2"
  input: "ssd_preprocessing_train/distorted_bounding_box_crop/strided_slice/stack"
  input: "ssd_preprocessing_train/distorted_bounding_box_crop/strided_slice/stack_1"
  input: "ssd_preprocessing_train/distorted_bounding_box_crop/strided_slice/stack_2"
  device: "/device:CPU:0"
  attr {
    key: "Index"
    value {
      type: DT_INT32
    }
  }
  attr {
    key: "T"
    value {
      type: DT_FLOAT
    }
  }
  attr {
    key: "_output_shapes"
    value {
      list {
        shape {
          dim {
            size: 4
          }
        }
      }
    }
  }
  attr {
    key: "begin_mask"
    value {
      i: 0
    }
  }
  attr {
    key: "ellipsis_mask"
    value {
      i: 0
    }
  }
  attr {
    key: "end_mask"
    value {
      i: 0
    }
  }
  attr {
    key: "new_axis_mask"
    value {
      i: 0
    }
  }
  attr {
    key: "shrink_axis_mask"
    value {
      i: 3
    }
  }
}
node {
  name: "ssd_preprocessing_train/distorted_bounding_box_crop/Slice"
  op: "Slice"
  input: "ssd_preprocessing_train/convert_image"
  input: "ssd_preprocessing_train/distorted_bounding_box_crop/sample_distorted_bounding_box/SampleDistortedBoundingBoxV2"
  input: "ssd_preprocessing_train/distorted_bounding_box_crop/sample_distorted_bounding_box/SampleDistortedBoundingBoxV2:1"
  device: "/device:CPU:0"
  attr {
    key: "Index"
    value {
      type: DT_INT32
    }
  }
  attr {
    key: "T"
    value {
      type: DT_FLOAT
    }
  }
  attr {
    key: "_output_shapes"
    value {
      list {
        shape {
          dim {
            size: -1
          }
          dim {
            size: -1
          }
          dim {
            size: 3
          }
        }
      }
    }
  }
}
node {
  name: "ssd_preprocessing_train/distorted_bounding_box_crop/bboxes_resize/strided_slice/stack"
  op: "Const"
  device: "/device:CPU:0"
  attr {
    key: "_output_shapes"
    value {
      list {
        shape {
          dim {
            size: 1
          }
        }
      }
    }
  }
  attr {
    key: "dtype"
    value {
      type: DT_INT32
    }
  }
  attr {
    key: "value"
    value {
      tensor {
        dtype: DT_INT32
        tensor_shape {
          dim {
            size: 1
          }
        }
        int_val: 0
      }
    }
  }
}
node {
  name: "ssd_preprocessing_train/distorted_bounding_box_crop/bboxes_resize/strided_slice/stack_1"
  op: "Const"
  device: "/device:CPU:0"
  attr {
    key: "_output_shapes"
    value {
      list {
        shape {
          dim {
            size: 1
          }
        }
      }
    }
  }
  attr {
    key: "dtype"
    value {
      type: DT_INT32
    }
  }
  attr {
    key: "value"
    value {
      tensor {
        dtype: DT_INT32
        tensor_shape {
          dim {
            size: 1
          }
        }
        int_val: 1
      }
    }
  }
}
node {
  name: "ssd_preprocessing_train/distorted_bounding_box_crop/bboxes_resize/strided_slice/stack_2"
  op: "Const"
  device: "/device:CPU:0"
  attr {
    key: "_output_shapes"
    value {
      list {
        shape {
          dim {
            size: 1
          }
        }
      }
    }
  }
  attr {
    key: "dtype"
    value {
      type: DT_INT32
    }
  }
  attr {
    key: "value"
    value {
      tensor {
        dtype: DT_INT32
        tensor_shape {
          dim {
            size: 1
          }
        }
        int_val: 1
      }
    }
  }
}
node {
  name: "ssd_preprocessing_train/distorted_bounding_box_crop/bboxes_resize/strided_slice"
  op: "StridedSlice"
  input: "ssd_preprocessing_train/distorted_bounding_box_crop/strided_slice"
  input: "ssd_preprocessing_train/distorted_bounding_box_crop/bboxes_resize/strided_slice/stack"
  input: "ssd_preprocessing_train/distorted_bounding_box_crop/bboxes_resize/strided_slice/stack_1"
  input: "ssd_preprocessing_train/distorted_bounding_box_crop/bboxes_resize/strided_slice/stack_2"
  device: "/device:CPU:0"
  attr {
    key: "Index"
    value {
      type: DT_INT32
    }
  }
  attr {
    key: "T"
    value {
      type: DT_FLOAT
    }
  }
  attr {
    key: "_output_shapes"
    value {
      list {
        shape {
        }
      }
    }
  }
  attr {
    key: "begin_mask"
    value {
      i: 0
    }
  }
  attr {
    key: "ellipsis_mask"
    value {
      i: 0
    }
  }
  attr {
    key: "end_mask"
    value {
      i: 0
    }
  }
  attr {
    key: "new_axis_mask"
    value {
      i: 0
    }
  }
  attr {
    key: "shrink_axis_mask"
    value {
      i: 1
    }
  }
}
node {
  name: "ssd_preprocessing_train/distorted_bounding_box_crop/bboxes_resize/strided_slice_1/stack"
  op: "Const"
  device: "/device:CPU:0"
  attr {
    key: "_output_shapes"
    value {
      list {
        shape {
          dim {
            size: 1
          }
        }
      }
    }
  }
  attr {
    key: "dtype"
    value {
      type: DT_INT32
    }
  }
  attr {
    key: "value"
    value {
      tensor {
        dtype: DT_INT32
        tensor_shape {
          dim {
            size: 1
          }
        }
        int_val: 1
      }
    }
  }
}
node {
  name: "ssd_preprocessing_train/distorted_bounding_box_crop/bboxes_resize/strided_slice_1/stack_1"
  op: "Const"
  device: "/device:CPU:0"
  attr {
    key: "_output_shapes"
    value {
      list {
        shape {
          dim {
            size: 1
          }
        }
      }
    }
  }
  attr {
    key: "dtype"
    value {
      type: DT_INT32
    }
  }
  attr {
    key: "value"
    value {
      tensor {
        dtype: DT_INT32
        tensor_shape {
          dim {
            size: 1
          }
        }
        int_val: 2
      }
    }
  }
}
node {
  name: "ssd_preprocessing_train/distorted_bounding_box_crop/bboxes_resize/strided_slice_1/stack_2"
  op: "Const"
  device: "/device:CPU:0"
  attr {
    key: "_output_shapes"
    value {
      list {
        shape {
          dim {
            size: 1
          }
        }
      }
    }
  }
  attr {
    key: "dtype"
    value {
      type: DT_INT32
    }
  }
  attr {
    key: "value"
    value {
      tensor {
        dtype: DT_INT32
        tensor_shape {
          dim {
            size: 1
          }
        }
        int_val: 1
      }
    }
  }
}
node {
  name: "ssd_preprocessing_train/distorted_bounding_box_crop/bboxes_resize/strided_slice_1"
  op: "StridedSlice"
  input: "ssd_preprocessing_train/distorted_bounding_box_crop/strided_slice"
  input: "ssd_preprocessing_train/distorted_bounding_box_crop/bboxes_resize/strided_slice_1/stack"
  input: "ssd_preprocessing_train/distorted_bounding_box_crop/bboxes_resize/strided_slice_1/stack_1"
  input: "ssd_preprocessing_train/distorted_bounding_box_crop/bboxes_resize/strided_slice_1/stack_2"
  device: "/device:CPU:0"
  attr {
    key: "Index"
    value {
      type: DT_INT32
    }
  }
  attr {
    key: "T"
    value {
      type: DT_FLOAT
    }
  }
  attr {
    key: "_output_shapes"
    value {
      list {
        shape {
        }
      }
    }
  }
  attr {
    key: "begin_mask"
    value {
      i: 0
    }
  }
  attr {
    key: "ellipsis_mask"
    value {
      i: 0
    }
  }
  attr {
    key: "end_mask"
    value {
      i: 0
    }
  }
  attr {
    key: "new_axis_mask"
    value {
      i: 0
    }
  }
  attr {
    key: "shrink_axis_mask"
    value {
      i: 1
    }
  }
}
node {
  name: "ssd_preprocessing_train/distorted_bounding_box_crop/bboxes_resize/strided_slice_2/stack"
  op: "Const"
  device: "/device:CPU:0"
  attr {
    key: "_output_shapes"
    value {
      list {
        shape {
          dim {
            size: 1
          }
        }
      }
    }
  }
  attr {
    key: "dtype"
    value {
      type: DT_INT32
    }
  }
  attr {
    key: "value"
    value {
      tensor {
        dtype: DT_INT32
        tensor_shape {
          dim {
            size: 1
          }
        }
        int_val: 0
      }
    }
  }
}
node {
  name: "ssd_preprocessing_train/distorted_bounding_box_crop/bboxes_resize/strided_slice_2/stack_1"
  op: "Const"
  device: "/device:CPU:0"
  attr {
    key: "_output_shapes"
    value {
      list {
        shape {
          dim {
            size: 1
          }
        }
      }
    }
  }
  attr {
    key: "dtype"
    value {
      type: DT_INT32
    }
  }
  attr {
    key: "value"
    value {
      tensor {
        dtype: DT_INT32
        tensor_shape {
          dim {
            size: 1
          }
        }
        int_val: 1
      }
    }
  }
}
node {
  name: "ssd_preprocessing_train/distorted_bounding_box_crop/bboxes_resize/strided_slice_2/stack_2"
  op: "Const"
  device: "/device:CPU:0"
  attr {
    key: "_output_shapes"
    value {
      list {
        shape {
          dim {
            size: 1
          }
        }
      }
    }
  }
  attr {
    key: "dtype"
    value {
      type: DT_INT32
    }
  }
  attr {
    key: "value"
    value {
      tensor {
        dtype: DT_INT32
        tensor_shape {
          dim {
            size: 1
          }
        }
        int_val: 1
      }
    }
  }
}
node {
  name: "ssd_preprocessing_train/distorted_bounding_box_crop/bboxes_resize/strided_slice_2"
  op: "StridedSlice"
  input: "ssd_preprocessing_train/distorted_bounding_box_crop/strided_slice"
  input: "ssd_preprocessing_train/distorted_bounding_box_crop/bboxes_resize/strided_slice_2/stack"
  input: "ssd_preprocessing_train/distorted_bounding_box_crop/bboxes_resize/strided_slice_2/stack_1"
  input: "ssd_preprocessing_train/distorted_bounding_box_crop/bboxes_resize/strided_slice_2/stack_2"
  device: "/device:CPU:0"
  attr {
    key: "Index"
    value {
      type: DT_INT32
    }
  }
  attr {
    key: "T"
    value {
      type: DT_FLOAT
    }
  }
  attr {
    key: "_output_shapes"
    value {
      list {
        shape {
        }
      }
    }
  }
  attr {
    key: "begin_mask"
    value {
      i: 0
    }
  }
  attr {
    key: "ellipsis_mask"
    value {
      i: 0
    }
  }
  attr {
    key: "end_mask"
    value {
      i: 0
    }
  }
  attr {
    key: "new_axis_mask"
    value {
      i: 0
    }
  }
  attr {
    key: "shrink_axis_mask"
    value {
      i: 1
    }
  }
}
node {
  name: "ssd_preprocessing_train/distorted_bounding_box_crop/bboxes_resize/strided_slice_3/stack"
  op: "Const"
  device: "/device:CPU:0"
  attr {
    key: "_output_shapes"
    value {
      list {
        shape {
          dim {
            size: 1
          }
        }
      }
    }
  }
  attr {
    key: "dtype"
    value {
      type: DT_INT32
    }
  }
  attr {
    key: "value"
    value {
      tensor {
        dtype: DT_INT32
        tensor_shape {
          dim {
            size: 1
          }
        }
        int_val: 1
      }
    }
  }
}
node {
  name: "ssd_preprocessing_train/distorted_bounding_box_crop/bboxes_resize/strided_slice_3/stack_1"
  op: "Const"
  device: "/device:CPU:0"
  attr {
    key: "_output_shapes"
    value {
      list {
        shape {
          dim {
            size: 1
          }
        }
      }
    }
  }
  attr {
    key: "dtype"
    value {
      type: DT_INT32
    }
  }
  attr {
    key: "value"
    value {
      tensor {
        dtype: DT_INT32
        tensor_shape {
          dim {
            size: 1
          }
        }
        int_val: 2
      }
    }
  }
}
node {
  name: "ssd_preprocessing_train/distorted_bounding_box_crop/bboxes_resize/strided_slice_3/stack_2"
  op: "Const"
  device: "/device:CPU:0"
  attr {
    key: "_output_shapes"
    value {
      list {
        shape {
          dim {
            size: 1
          }
        }
      }
    }
  }
  attr {
    key: "dtype"
    value {
      type: DT_INT32
    }
  }
  attr {
    key: "value"
    value {
      tensor {
        dtype: DT_INT32
        tensor_shape {
          dim {
            size: 1
          }
        }
        int_val: 1
      }
    }
  }
}
node {
  name: "ssd_preprocessing_train/distorted_bounding_box_crop/bboxes_resize/strided_slice_3"
  op: "StridedSlice"
  input: "ssd_preprocessing_train/distorted_bounding_box_crop/strided_slice"
  input: "ssd_preprocessing_train/distorted_bounding_box_crop/bboxes_resize/strided_slice_3/stack"
  input: "ssd_preprocessing_train/distorted_bounding_box_crop/bboxes_resize/strided_slice_3/stack_1"
…
  device: "/device:CPU:0"
  attr {
    key: "_class"
    value {
      list {
        s: "loc:@ssd_300_vgg/block11_box/conv_cls/biases"
      }
    }
  }
  attr {
    key: "_output_shapes"
    value {
      list {
        shape {
        }
      }
    }
  }
  attr {
    key: "dtype"
    value {
      type: DT_FLOAT
    }
  }
}
node {
  name: "init_ops/report_uninitialized_variables/stack"
  op: "Pack"
  input: "init_ops/report_uninitialized_variables/IsVariableInitialized"
  input: "init_ops/report_uninitialized_variables/IsVariableInitialized_1"
  input: "init_ops/report_uninitialized_variables/IsVariableInitialized_2"
  input: "init_ops/report_uninitialized_variables/IsVariableInitialized_3"
  input: "init_ops/report_uninitialized_variables/IsVariableInitialized_4"
  input: "init_ops/report_uninitialized_variables/IsVariableInitialized_5"
  input: "init_ops/report_uninitialized_variables/IsVariableInitialized_6"
  input: "init_ops/report_uninitialized_variables/IsVariableInitialized_7"
  input: "init_ops/report_uninitialized_variables/IsVariableInitialized_8"
  input: "init_ops/report_uninitialized_variables/IsVariableInitialized_9"
  input: "init_ops/report_uninitialized_variables/IsVariableInitialized_10"
  input: "init_ops/report_uninitialized_variables/IsVariableInitialized_11"
  input: "init_ops/report_uninitialized_variables/IsVariableInitialized_12"
  input: "init_ops/report_uninitialized_variables/IsVariableInitialized_13"
  input: "init_ops/report_uninitialized_variables/IsVariableInitialized_14"
  input: "init_ops/report_uninitialized_variables/IsVariableInitialized_15"
  input: "init_ops/report_uninitialized_variables/IsVariableInitialized_16"
  input: "init_ops/report_uninitialized_variables/IsVariableInitialized_17"
  input: "init_ops/report_uninitialized_variables/IsVariableInitialized_18"
  input: "init_ops/report_uninitialized_variables/IsVariableInitialized_19"
  input: "init_ops/report_uninitialized_variables/IsVariableInitialized_20"
  input: "init_ops/report_uninitialized_variables/IsVariableInitialized_21"
  input: "init_ops/report_uninitialized_variables/IsVariableInitialized_22"
  input: "init_ops/report_uninitialized_variables/IsVariableInitialized_23"
  input: "init_ops/report_uninitialized_variables/IsVariableInitialized_24"
  input: "init_ops/report_uninitialized_variables/IsVariableInitialized_25"
  input: "init_ops/report_uninitialized_variables/IsVariableInitialized_26"
  input: "init_ops/report_uninitialized_variables/IsVariableInitialized_27"
  input: "init_ops/report_uninitialized_variables/IsVariableInitialized_28"
  input: "init_ops/report_uninitialized_variables/IsVariableInitialized_29"
  input: "init_ops/report_uninitialized_variables/IsVariableInitialized_30"
  input: "init_ops/report_uninitialized_variables/IsVariableInitialized_31"
  input: "init_ops/report_uninitialized_variables/IsVariableInitialized_32"
  input: "init_ops/report_uninitialized_variables/IsVariableInitialized_33"
  input: "init_ops/report_uninitialized_variables/IsVariableInitialized_34"
  input: "init_ops/report_uninitialized_variables/IsVariableInitialized_35"
  input: "init_ops/report_uninitialized_variables/IsVariableInitialized_36"
  input: "init_ops/report_uninitialized_variables/IsVariableInitialized_37"
  input: "init_ops/report_uninitialized_variables/IsVariableInitialized_38"
  input: "init_ops/report_uninitialized_variables/IsVariableInitialized_39"
  input: "init_ops/report_uninitialized_variables/IsVariableInitialized_40"
  input: "init_ops/report_uninitialized_variables/IsVariableInitialized_41"
  input: "init_ops/report_uninitialized_variables/IsVariableInitialized_42"
  input: "init_ops/report_uninitialized_variables/IsVariableInitialized_43"
  input: "init_ops/report_uninitialized_variables/IsVariableInitialized_44"
  input: "init_ops/report_uninitialized_variables/IsVariableInitialized_45"
  input: "init_ops/report_uninitialized_variables/IsVariableInitialized_46"
  input: "init_ops/report_uninitialized_variables/IsVariableInitialized_47"
  input: "init_ops/report_uninitialized_variables/IsVariableInitialized_48"
  input: "init_ops/report_uninitialized_variables/IsVariableInitialized_49"
  input: "init_ops/report_uninitialized_variables/IsVariableInitialized_50"
  input: "init_ops/report_uninitialized_variables/IsVariableInitialized_51"
  input: "init_ops/report_uninitialized_variables/IsVariableInitialized_52"
  input: "init_ops/report_uninitialized_variables/IsVariableInitialized_53"
  input: "init_ops/report_uninitialized_variables/IsVariableInitialized_54"
  input: "init_ops/report_uninitialized_variables/IsVariableInitialized_55"
  input: "init_ops/report_uninitialized_variables/IsVariableInitialized_56"
  input: "init_ops/report_uninitialized_variables/IsVariableInitialized_57"
  input: "init_ops/report_uninitialized_variables/IsVariableInitialized_58"
  input: "init_ops/report_uninitialized_variables/IsVariableInitialized_59"
  input: "init_ops/report_uninitialized_variables/IsVariableInitialized_60"
  input: "init_ops/report_uninitialized_variables/IsVariableInitialized_61"
  input: "init_ops/report_uninitialized_variables/IsVariableInitialized_62"
  input: "init_ops/report_uninitialized_variables/IsVariableInitialized_63"
  input: "init_ops/report_uninitialized_variables/IsVariableInitialized_64"
  input: "init_ops/report_uninitialized_variables/IsVariableInitialized_65"
  input: "init_ops/report_uninitialized_variables/IsVariableInitialized_66"
  input: "init_ops/report_uninitialized_variables/IsVariableInitialized_67"
  input: "init_ops/report_uninitialized_variables/IsVariableInitialized_68"
  input: "init_ops/report_uninitialized_variables/IsVariableInitialized_69"
  input: "init_ops/report_uninitialized_variables/IsVariableInitialized_70"
  input: "init_ops/report_uninitialized_variables/IsVariableInitialized_71"
  input: "init_ops/report_uninitialized_variables/IsVariableInitialized_72"
  input: "init_ops/report_uninitialized_variables/IsVariableInitialized_73"
  input: "init_ops/report_uninitialized_variables/IsVariableInitialized_74"
  input: "init_ops/report_uninitialized_variables/IsVariableInitialized_75"
  input: "init_ops/report_uninitialized_variables/IsVariableInitialized_76"
  input: "init_ops/report_uninitialized_variables/IsVariableInitialized_77"
  input: "init_ops/report_uninitialized_variables/IsVariableInitialized_78"
  input: "init_ops/report_uninitialized_variables/IsVariableInitialized_79"
  input: "init_ops/report_uninitialized_variables/IsVariableInitialized_80"
  input: "init_ops/report_uninitialized_variables/IsVariableInitialized_81"
  input: "init_ops/report_uninitialized_variables/IsVariableInitialized_82"
  input: "init_ops/report_uninitialized_variables/IsVariableInitialized_83"
  input: "init_ops/report_uninitialized_variables/IsVariableInitialized_84"
  input: "init_ops/report_uninitialized_variables/IsVariableInitialized_85"
  input: "init_ops/report_uninitialized_variables/IsVariableInitialized_86"
  input: "init_ops/report_uninitialized_variables/IsVariableInitialized_87"
  input: "init_ops/report_uninitialized_variables/IsVariableInitialized_88"
  input: "init_ops/report_uninitialized_variables/IsVariableInitialized_89"
  input: "init_ops/report_uninitialized_variables/IsVariableInitialized_90"
  input: "init_ops/report_uninitialized_variables/IsVariableInitialized_91"
  input: "init_ops/report_uninitialized_variables/IsVariableInitialized_92"
  input: "init_ops/report_uninitialized_variables/IsVariableInitialized_93"
  input: "init_ops/report_uninitialized_variables/IsVariableInitialized_94"
  input: "init_ops/report_uninitialized_variables/IsVariableInitialized_95"
  input: "init_ops/report_uninitialized_variables/IsVariableInitialized_96"
  input: "init_ops/report_uninitialized_variables/IsVariableInitialized_97"
  input: "init_ops/report_uninitialized_variables/IsVariableInitialized_98"
  input: "init_ops/report_uninitialized_variables/IsVariableInitialized_99"
  input: "init_ops/report_uninitialized_variables/IsVariableInitialized_100"
  input: "init_ops/report_uninitialized_variables/IsVariableInitialized_101"
  input: "init_ops/report_uninitialized_variables/IsVariableInitialized_102"
  input: "init_ops/report_uninitialized_variables/IsVariableInitialized_103"
  input: "init_ops/report_uninitialized_variables/IsVariableInitialized_104"
  input: "init_ops/report_uninitialized_variables/IsVariableInitialized_105"
  input: "init_ops/report_uninitialized_variables/IsVariableInitialized_106"
  input: "init_ops/report_uninitialized_variables/IsVariableInitialized_107"
  input: "init_ops/report_uninitialized_variables/IsVariableInitialized_108"
  input: "init_ops/report_uninitialized_variables/IsVariableInitialized_109"
  input: "init_ops/report_uninitialized_variables/IsVariableInitialized_110"
  input: "init_ops/report_uninitialized_variables/IsVariableInitialized_111"
  input: "init_ops/report_uninitialized_variables/IsVariableInitialized_112"
  input: "init_ops/report_uninitialized_variables/IsVariableInitialized_113"
  input: "init_ops/report_uninitialized_variables/IsVariableInitialized_114"
  input: "init_ops/report_uninitialized_variables/IsVariableInitialized_115"
  input: "init_ops/report_uninitialized_variables/IsVariableInitialized_116"
  input: "init_ops/report_uninitialized_variables/IsVariableInitialized_117"
  input: "init_ops/report_uninitialized_variables/IsVariableInitialized_118"
  input: "init_ops/report_uninitialized_variables/IsVariableInitialized_119"
  input: "init_ops/report_uninitialized_variables/IsVariableInitialized_120"
  input: "init_ops/report_uninitialized_variables/IsVariableInitialized_121"
  input: "init_ops/report_uninitialized_variables/IsVariableInitialized_122"
  input: "init_ops/report_uninitialized_variables/IsVariableInitialized_123"
  input: "init_ops/report_uninitialized_variables/IsVariableInitialized_124"
  input: "init_ops/report_uninitialized_variables/IsVariableInitialized_125"
  input: "init_ops/report_uninitialized_variables/IsVariableInitialized_126"
  input: "init_ops/report_uninitialized_variables/IsVariableInitialized_127"
  input: "init_ops/report_uninitialized_variables/IsVariableInitialized_128"
  input: "init_ops/report_uninitialized_variables/IsVariableInitialized_129"
  input: "init_ops/report_uninitialized_variables/IsVariableInitialized_130"
  input: "init_ops/report_uninitialized_variables/IsVariableInitialized_131"
  input: "init_ops/report_uninitialized_variables/IsVariableInitialized_132"
  input: "init_ops/report_uninitialized_variables/IsVariableInitialized_133"
  input: "init_ops/report_uninitialized_variables/IsVariableInitialized_134"
  input: "init_ops/report_uninitialized_variables/IsVariableInitialized_135"
  input: "init_ops/report_uninitialized_variables/IsVariableInitialized_136"
  input: "init_ops/report_uninitialized_variables/IsVariableInitialized_137"
  input: "init_ops/report_uninitialized_variables/IsVariableInitialized_138"
  input: "init_ops/report_uninitialized_variables/IsVariableInitialized_139"
  input: "init_ops/report_uninitialized_variables/IsVariableInitialized_140"
  input: "init_ops/report_uninitialized_variables/IsVariableInitialized_141"
  input: "init_ops/report_uninitialized_variables/IsVariableInitialized_142"
  input: "init_ops/report_uninitialized_variables/IsVariableInitialized_143"
  input: "init_ops/report_uninitialized_variables/IsVariableInitialized_144"
  input: "init_ops/report_uninitialized_variables/IsVariableInitialized_145"
  input: "init_ops/report_uninitialized_variables/IsVariableInitialized_146"
  input: "init_ops/report_uninitialized_variables/IsVariableInitialized_147"
  input: "init_ops/report_uninitialized_variables/IsVariableInitialized_148"
  input: "init_ops/report_uninitialized_variables/IsVariableInitialized_149"
  input: "init_ops/report_uninitialized_variables/IsVariableInitialized_150"
  input: "init_ops/report_uninitialized_variables/IsVariableInitialized_151"
  input: "init_ops/report_uninitialized_variables/IsVariableInitialized_152"
  input: "init_ops/report_uninitialized_variables/IsVariableInitialized_153"
  input: "init_ops/report_uninitialized_variables/IsVariableInitialized_154"
  input: "init_ops/report_uninitialized_variables/IsVariableInitialized_155"
  input: "init_ops/report_uninitialized_variables/IsVariableInitialized_156"
  input: "init_ops/report_uninitialized_variables/IsVariableInitialized_157"
  input: "init_ops/report_uninitialized_variables/IsVariableInitialized_158"
  input: "init_ops/report_uninitialized_variables/IsVariableInitialized_159"
  input: "init_ops/report_uninitialized_variables/IsVariableInitialized_160"
  input: "init_ops/report_uninitialized_variables/IsVariableInitialized_161"
  input: "init_ops/report_uninitialized_variables/IsVariableInitialized_162"
  input: "init_ops/report_uninitialized_variables/IsVariableInitialized_163"
  input: "init_ops/report_uninitialized_variables/IsVariableInitialized_164"
  input: "init_ops/report_uninitialized_variables/IsVariableInitialized_165"
  input: "init_ops/report_uninitialized_variables/IsVariableInitialized_166"
  input: "init_ops/report_uninitialized_variables/IsVariableInitialized_167"
  input: "init_ops/report_uninitialized_variables/IsVariableInitialized_168"
  input: "init_ops/report_uninitialized_variables/IsVariableInitialized_169"
  input: "init_ops/report_uninitialized_variables/IsVariableInitialized_170"
  input: "init_ops/report_uninitialized_variables/IsVariableInitialized_171"
  input: "init_ops/report_uninitialized_variables/IsVariableInitialized_172"
  input: "init_ops/report_uninitialized_variables/IsVariableInitialized_173"
  input: "init_ops/report_uninitialized_variables/IsVariableInitialized_174"
  input: "init_ops/report_uninitialized_variables/IsVariableInitialized_175"
  input: "init_ops/report_uninitialized_variables/IsVariableInitialized_176"
  input: "init_ops/report_uninitialized_variables/IsVariableInitialized_177"
  input: "init_ops/report_uninitialized_variables/IsVariableInitialized_178"
  input: "init_ops/report_uninitialized_variables/IsVariableInitialized_179"
  input: "init_ops/report_uninitialized_variables/IsVariableInitialized_180"
  input: "init_ops/report_uninitialized_variables/IsVariableInitialized_181"
  input: "init_ops/report_uninitialized_variables/IsVariableInitialized_182"
  input: "init_ops/report_uninitialized_variables/IsVariableInitialized_183"
  input: "init_ops/report_uninitialized_variables/IsVariableInitialized_184"
  input: "init_ops/report_uninitialized_variables/IsVariableInitialized_185"
  input: "init_ops/report_uninitialized_variables/IsVariableInitialized_186"
  input: "init_ops/report_uninitialized_variables/IsVariableInitialized_187"
  input: "init_ops/report_uninitialized_variables/IsVariableInitialized_188"
  input: "init_ops/report_uninitialized_variables/IsVariableInitialized_189"
  input: "init_ops/report_uninitialized_variables/IsVariableInitialized_190"
  input: "init_ops/report_uninitialized_variables/IsVariableInitialized_191"
  input: "init_ops/report_uninitialized_variables/IsVariableInitialized_192"
  input: "init_ops/report_uninitialized_variables/IsVariableInitialized_193"
  input: "init_ops/report_uninitialized_variables/IsVariableInitialized_194"
  input: "init_ops/report_uninitialized_variables/IsVariableInitialized_195"
  input: "init_ops/report_uninitialized_variables/IsVariableInitialized_196"
  input: "init_ops/report_uninitialized_variables/IsVariableInitialized_197"
  input: "init_ops/report_uninitialized_variables/IsVariableInitialized_198"
  input: "init_ops/report_uninitialized_variables/IsVariableInitialized_199"
  input: "init_ops/report_uninitialized_variables/IsVariableInitialized_200"
  input: "init_ops/report_uninitialized_variables/IsVariableInitialized_201"
  input: "init_ops/report_uninitialized_variables/IsVariableInitialized_202"
  input: "init_ops/report_uninitialized_variables/IsVariableInitialized_203"
  input: "init_ops/report_uninitialized_variables/IsVariableInitialized_204"
  input: "init_ops/report_uninitialized_variables/IsVariableInitialized_205"
  input: "init_ops/report_uninitialized_variables/IsVariableInitialized_206"
  input: "init_ops/report_uninitialized_variables/IsVariableInitialized_207"
  input: "init_ops/report_uninitialized_variables/IsVariableInitialized_208"
  input: "init_ops/report_uninitialized_variables/IsVariableInitialized_209"
  input: "init_ops/report_uninitialized_variables/IsVariableInitialized_210"
  input: "init_ops/report_uninitialized_variables/IsVariableInitialized_211"
  input: "init_ops/report_uninitialized_variables/IsVariableInitialized_212"
  input: "init_ops/report_uninitialized_variables/IsVariableInitialized_213"
  input: "init_ops/report_uninitialized_variables/IsVariableInitialized_214"
  input: "init_ops/report_uninitialized_variables/IsVariableInitialized_215"
  device: "/device:CPU:0"
  attr {
    key: "N"
    value {
      i: 216
    }
  }
  attr {
    key: "T"
    value {
      type: DT_BOOL
    }
  }
  attr {
    key: "_output_shapes"
    value {
      list {
        shape {
          dim {
            size: 216
          }
        }
      }
    }
  }
  attr {
    key: "axis"
    value {
      i: 0
    }
  }
}
node {
  name: "init_ops/report_uninitialized_variables/LogicalNot"
  op: "LogicalNot"
  input: "init_ops/report_uninitialized_variables/stack"
  device: "/device:CPU:0"
  attr {
    key: "_output_shapes"
    value {
      list {
        shape {
          dim {
            size: 216
          }
        }
      }
    }
  }
}
node {
  name: "init_ops/report_uninitialized_variables/Const"
  op: "Const"
  device: "/device:CPU:0"
  attr {
    key: "_output_shapes"
    value {
      list {
        shape {
          dim {
            size: 216
          }
        }
      }
    }
  }
  attr {
    key: "dtype"
    value {
      type: DT_STRING
    }
  }
  attr {
    key: "value"
    value {
      tensor {
        dtype: DT_STRING
        tensor_shape {
          dim {
            size: 216
          }
        }
        string_val: "global_step"
        string_val: "ssd_300_vgg/conv1/conv1_1/weights"
        string_val: "ssd_300_vgg/conv1/conv1_1/biases"
        string_val: "ssd_300_vgg/conv1/conv1_2/weights"
        string_val: "ssd_300_vgg/conv1/conv1_2/biases"
        string_val: "ssd_300_vgg/conv2/conv2_1/weights"
        string_val: "ssd_300_vgg/conv2/conv2_1/biases"
        string_val: "ssd_300_vgg/conv2/conv2_2/weights"
        string_val: "ssd_300_vgg/conv2/conv2_2/biases"
        string_val: "ssd_300_vgg/conv3/conv3_1/weights"
        string_val: "ssd_300_vgg/conv3/conv3_1/biases"
        string_val: "ssd_300_vgg/conv3/conv3_2/weights"
        string_val: "ssd_300_vgg/conv3/conv3_2/biases"
        string_val: "ssd_300_vgg/conv3/conv3_3/weights"
        string_val: "ssd_300_vgg/conv3/conv3_3/biases"
        string_val: "ssd_300_vgg/conv4/conv4_1/weights"
        string_val: "ssd_300_vgg/conv4/conv4_1/biases"
        string_val: "ssd_300_vgg/conv4/conv4_2/weights"
        string_val: "ssd_300_vgg/conv4/conv4_2/biases"
        string_val: "ssd_300_vgg/conv4/conv4_3/weights"
        string_val: "ssd_300_vgg/conv4/conv4_3/biases"
        string_val: "ssd_300_vgg/conv5/conv5_1/weights"
        string_val: "ssd_300_vgg/conv5/conv5_1/biases"
        string_val: "ssd_300_vgg/conv5/conv5_2/weights"
        string_val: "ssd_300_vgg/conv5/conv5_2/biases"
        string_val: "ssd_300_vgg/conv5/conv5_3/weights"
        string_val: "ssd_300_vgg/conv5/conv5_3/biases"
        string_val: "ssd_300_vgg/conv6/weights"
        string_val: "ssd_300_vgg/conv6/biases"
        string_val: "ssd_300_vgg/conv7/weights"
        string_val: "ssd_300_vgg/conv7/biases"
        string_val: "ssd_300_vgg/block8/conv1x1/weights"
        string_val: "ssd_300_vgg/block8/conv1x1/biases"
        string_val: "ssd_300_vgg/block8/conv3x3/weights"
        string_val: "ssd_300_vgg/block8/conv3x3/biases"
        string_val: "ssd_300_vgg/block9/conv1x1/weights"
        string_val: "ssd_300_vgg/block9/conv1x1/biases"
        string_val: "ssd_300_vgg/block9/conv3x3/weights"
        string_val: "ssd_300_vgg/block9/conv3x3/biases"
        string_val: "ssd_300_vgg/block10/conv1x1/weights"
        string_val: "ssd_300_vgg/block10/conv1x1/biases"
        string_val: "ssd_300_vgg/block10/conv3x3/weights"
        string_val: "ssd_300_vgg/block10/conv3x3/biases"
        string_val: "ssd_300_vgg/block11/conv1x1/weights"
        string_val: "ssd_300_vgg/block11/conv1x1/biases"
        string_val: "ssd_300_vgg/block11/conv3x3/weights"
        string_val: "ssd_300_vgg/block11/conv3x3/biases"
        string_val: "ssd_300_vgg/block4_box/L2Normalization/gamma"
        string_val: "ssd_300_vgg/block4_box/conv_loc/weights"
        string_val: "ssd_300_vgg/block4_box/conv_loc/biases"
        string_val: "ssd_300_vgg/block4_box/conv_cls/weights"
        string_val: "ssd_300_vgg/block4_box/conv_cls/biases"
        string_val: "ssd_300_vgg/block7_box/conv_loc/weights"
        string_val: "ssd_300_vgg/block7_box/conv_loc/biases"
        string_val: "ssd_300_vgg/block7_box/conv_cls/weights"
        string_val: "ssd_300_vgg/block7_box/conv_cls/biases"
        string_val: "ssd_300_vgg/block8_box/conv_loc/weights"
        string_val: "ssd_300_vgg/block8_box/conv_loc/biases"
        string_val: "ssd_300_vgg/block8_box/conv_cls/weights"
        string_val: "ssd_300_vgg/block8_box/conv_cls/biases"
        string_val: "ssd_300_vgg/block9_box/conv_loc/weights"
        string_val: "ssd_300_vgg/block9_box/conv_loc/biases"
        string_val: "ssd_300_vgg/block9_box/conv_cls/weights"
        string_val: "ssd_300_vgg/block9_box/conv_cls/biases"
        string_val: "ssd_300_vgg/block10_box/conv_loc/weights"
        string_val: "ssd_300_vgg/block10_box/conv_loc/biases"
        string_val: "ssd_300_vgg/block10_box/conv_cls/weights"
        string_val: "ssd_300_vgg/block10_box/conv_cls/biases"
        string_val: "ssd_300_vgg/block11_box/conv_loc/weights"
        string_val: "ssd_300_vgg/block11_box/conv_loc/biases"
        string_val: "ssd_300_vgg/block11_box/conv_cls/weights"
        string_val: "ssd_300_vgg/block11_box/conv_cls/biases"
        string_val: "beta1_power"
        string_val: "beta2_power"
        string_val: "ssd_300_vgg/conv1/conv1_1/weights/Adam"
        string_val: "ssd_300_vgg/conv1/conv1_1/weights/Adam_1"
        string_val: "ssd_300_vgg/conv1/conv1_1/biases/Adam"
        string_val: "ssd_300_vgg/conv1/conv1_1/biases/Adam_1"
        string_val: "ssd_300_vgg/conv1/conv1_2/weights/Adam"
        string_val: "ssd_300_vgg/conv1/conv1_2/weights/Adam_1"
        string_val: "ssd_300_vgg/conv1/conv1_2/biases/Adam"
        string_val: "ssd_300_vgg/conv1/conv1_2/biases/Adam_1"
        string_val: "ssd_300_vgg/conv2/conv2_1/weights/Adam"
        string_val: "ssd_300_vgg/conv2/conv2_1/weights/Adam_1"
        string_val: "ssd_300_vgg/conv2/conv2_1/biases/Adam"
        string_val: "ssd_300_vgg/conv2/conv2_1/biases/Adam_1"
        string_val: "ssd_300_vgg/conv2/conv2_2/weights/Adam"
        string_val: "ssd_300_vgg/conv2/conv2_2/weights/Adam_1"
        string_val: "ssd_300_vgg/conv2/conv2_2/biases/Adam"
        string_val: "ssd_300_vgg/conv2/conv2_2/biases/Adam_1"
        string_val: "ssd_300_vgg/conv3/conv3_1/weights/Adam"
        string_val: "ssd_300_vgg/conv3/conv3_1/weights/Adam_1"
        string_val: "ssd_300_vgg/conv3/conv3_1/biases/Adam"
        string_val: "ssd_300_vgg/conv3/conv3_1/biases/Adam_1"
        string_val: "ssd_300_vgg/conv3/conv3_2/weights/Adam"
        string_val: "ssd_300_vgg/conv3/conv3_2/weights/Adam_1"
        string_val: "ssd_300_vgg/conv3/conv3_2/biases/Adam"
        string_val: "ssd_300_vgg/conv3/conv3_2/biases/Adam_1"
        string_val: "ssd_300_vgg/conv3/conv3_3/weights/Adam"
        string_val: "ssd_300_vgg/conv3/conv3_3/weights/Adam_1"
        string_val: "ssd_300_vgg/conv3/conv3_3/biases/Adam"
        string_val: "ssd_300_vgg/conv3/conv3_3/biases/Adam_1"
        string_val: "ssd_300_vgg/conv4/conv4_1/weights/Adam"
        string_val: "ssd_300_vgg/conv4/conv4_1/weights/Adam_1"
        string_val: "ssd_300_vgg/conv4/conv4_1/biases/Adam"
        string_val: "ssd_300_vgg/conv4/conv4_1/biases/Adam_1"
        string_val: "ssd_300_vgg/conv4/conv4_2/weights/Adam"
        string_val: "ssd_300_vgg/conv4/conv4_2/weights/Adam_1"
        string_val: "ssd_300_vgg/conv4/conv4_2/biases/Adam"
        string_val: "ssd_300_vgg/conv4/conv4_2/biases/Adam_1"
        string_val: "ssd_300_vgg/conv4/conv4_3/weights/Adam"
        string_val: "ssd_300_vgg/conv4/conv4_3/weights/Adam_1"
        string_val: "ssd_300_vgg/conv4/conv4_3/biases/Adam"
        string_val: "ssd_300_vgg/conv4/conv4_3/biases/Adam_1"
        string_val: "ssd_300_vgg/conv5/conv5_1/weights/Adam"
        string_val: "ssd_300_vgg/conv5/conv5_1/weights/Adam_1"
        string_val: "ssd_300_vgg/conv5/conv5_1/biases/Adam"
        string_val: "ssd_300_vgg/conv5/conv5_1/biases/Adam_1"
        string_val: "ssd_300_vgg/conv5/conv5_2/weights/Adam"
        string_val: "ssd_300_vgg/conv5/conv5_2/weights/Adam_1"
        string_val: "ssd_300_vgg/conv5/conv5_2/biases/Adam"
        string_val: "ssd_300_vgg/conv5/conv5_2/biases/Adam_1"
        string_val: "ssd_300_vgg/conv5/conv5_3/weights/Adam"
        string_val: "ssd_300_vgg/conv5/conv5_3/weights/Adam_1"
        string_val: "ssd_300_vgg/conv5/conv5_3/biases/Adam"
        string_val: "ssd_300_vgg/conv5/conv5_3/biases/Adam_1"
        string_val: "ssd_300_vgg/conv6/weights/Adam"
        string_val: "ssd_300_vgg/conv6/weights/Adam_1"
        string_val: "ssd_300_vgg/conv6/biases/Adam"
        string_val: "ssd_300_vgg/conv6/biases/Adam_1"
        string_val: "ssd_300_vgg/conv7/weights/Adam"
        string_val: "ssd_300_vgg/conv7/weights/Adam_1"
        string_val: "ssd_300_vgg/conv7/biases/Adam"
        string_val: "ssd_300_vgg/conv7/biases/Adam_1"
        string_val: "ssd_300_vgg/block8/conv1x1/weights/Adam"
        string_val: "ssd_300_vgg/block8/conv1x1/weights/Adam_1"
        string_val: "ssd_300_vgg/block8/conv1x1/biases/Adam"
        string_val: "ssd_300_vgg/block8/conv1x1/biases/Adam_1"
        string_val: "ssd_300_vgg/block8/conv3x3/weights/Adam"
        string_val: "ssd_300_vgg/block8/conv3x3/weights/Adam_1"
        string_val: "ssd_300_vgg/block8/conv3x3/biases/Adam"
        string_val: "ssd_300_vgg/block8/conv3x3/biases/Adam_1"
        string_val: "ssd_300_vgg/block9/conv1x1/weights/Adam"
        string_val: "ssd_300_vgg/block9/conv1x1/weights/Adam_1"
        string_val: "ssd_300_vgg/block9/conv1x1/biases/Adam"
        string_val: "ssd_300_vgg/block9/conv1x1/biases/Adam_1"
        string_val: "ssd_300_vgg/block9/conv3x3/weights/Adam"
        string_val: "ssd_300_vgg/block9/conv3x3/weights/Adam_1"
        string_val: "ssd_300_vgg/block9/conv3x3/biases/Adam"
        string_val: "ssd_300_vgg/block9/conv3x3/biases/Adam_1"
        string_val: "ssd_300_vgg/block10/conv1x1/weights/Adam"
        string_val: "ssd_300_vgg/block10/conv1x1/weights/Adam_1"
        string_val: "ssd_300_vgg/block10/conv1x1/biases/Adam"
        string_val: "ssd_300_vgg/block10/conv1x1/biases/Adam_1"
        string_val: "ssd_300_vgg/block10/conv3x3/weights/Adam"
        string_val: "ssd_300_vgg/block10/conv3x3/weights/Adam_1"
        string_val: "ssd_300_vgg/block10/conv3x3/biases/Adam"
        string_val: "ssd_300_vgg/block10/conv3x3/biases/Adam_1"
        string_val: "ssd_300_vgg/block11/conv1x1/weights/Adam"
        string_val: "ssd_300_vgg/block11/conv1x1/weights/Adam_1"
        string_val: "ssd_300_vgg/block11/conv1x1/biases/Adam"
        string_val: "ssd_300_vgg/block11/conv1x1/biases/Adam_1"
        string_val: "ssd_300_vgg/block11/conv3x3/weights/Adam"
        string_val: "ssd_300_vgg/block11/conv3x3/weights/Adam_1"
        string_val: "ssd_300_vgg/block11/conv3x3/biases/Adam"
        string_val: "ssd_300_vgg/block11/conv3x3/biases/Adam_1"
        string_val: "ssd_300_vgg/block4_box/L2Normalization/gamma/Adam"
        string_val: "ssd_300_vgg/block4_box/L2Normalization/gamma/Adam_1"
        string_val: "ssd_300_vgg/block4_box/conv_loc/weights/Adam"
        string_val: "ssd_300_vgg/block4_box/conv_loc/weights/Adam_1"
        string_val: "ssd_300_vgg/block4_box/conv_loc/biases/Adam"
        string_val: "ssd_300_vgg/block4_box/conv_loc/biases/Adam_1"
        string_val: "ssd_300_vgg/block4_box/conv_cls/weights/Adam"
        string_val: "ssd_300_vgg/block4_box/conv_cls/weights/Adam_1"
        string_val: "ssd_300_vgg/block4_box/conv_cls/biases/Adam"
        string_val: "ssd_300_vgg/block4_box/conv_cls/biases/Adam_1"
        string_val: "ssd_300_vgg/block7_box/conv_loc/weights/Adam"
        string_val: "ssd_300_vgg/block7_box/conv_loc/weights/Adam_1"
        string_val: "ssd_300_vgg/block7_box/conv_loc/biases/Adam"
        string_val: "ssd_300_vgg/block7_box/conv_loc/biases/Adam_1"
        string_val: "ssd_300_vgg/block7_box/conv_cls/weights/Adam"
        string_val: "ssd_300_vgg/block7_box/conv_cls/weights/Adam_1"
        string_val: "ssd_300_vgg/block7_box/conv_cls/biases/Adam"
        string_val: "ssd_300_vgg/block7_box/conv_cls/biases/Adam_1"
        string_val: "ssd_300_vgg/block8_box/conv_loc/weights/Adam"
        string_val: "ssd_300_vgg/block8_box/conv_loc/weights/Adam_1"
        string_val: "ssd_300_vgg/block8_box/conv_loc/biases/Adam"
        string_val: "ssd_300_vgg/block8_box/conv_loc/biases/Adam_1"
        string_val: "ssd_300_vgg/block8_box/conv_cls/weights/Adam"
        string_val: "ssd_300_vgg/block8_box/conv_cls/weights/Adam_1"
        string_val: "ssd_300_vgg/block8_box/conv_cls/biases/Adam"
        string_val: "ssd_300_vgg/block8_box/conv_cls/biases/Adam_1"
        string_val: "ssd_300_vgg/block9_box/conv_loc/weights/Adam"
        string_val: "ssd_300_vgg/block9_box/conv_loc/weights/Adam_1"
        string_val: "ssd_300_vgg/block9_box/conv_loc/biases/Adam"
        string_val: "ssd_300_vgg/block9_box/conv_loc/biases/Adam_1"
        string_val: "ssd_300_vgg/block9_box/conv_cls/weights/Adam"
        string_val: "ssd_300_vgg/block9_box/conv_cls/weights/Adam_1"
        string_val: "ssd_300_vgg/block9_box/conv_cls/biases/Adam"
        string_val: "ssd_300_vgg/block9_box/conv_cls/biases/Adam_1"
        string_val: "ssd_300_vgg/block10_box/conv_loc/weights/Adam"
        string_val: "ssd_300_vgg/block10_box/conv_loc/weights/Adam_1"
        string_val: "ssd_300_vgg/block10_box/conv_loc/biases/Adam"
        string_val: "ssd_300_vgg/block10_box/conv_loc/biases/Adam_1"
        string_val: "ssd_300_vgg/block10_box/conv_cls/weights/Adam"
        string_val: "ssd_300_vgg/block10_box/conv_cls/weights/Adam_1"
        string_val: "ssd_300_vgg/block10_box/conv_cls/biases/Adam"
        string_val: "ssd_300_vgg/block10_box/conv_cls/biases/Adam_1"
        string_val: "ssd_300_vgg/block11_box/conv_loc/weights/Adam"
        string_val: "ssd_300_vgg/block11_box/conv_loc/weights/Adam_1"
        string_val: "ssd_300_vgg/block11_box/conv_loc/biases/Adam"
        string_val: "ssd_300_vgg/block11_box/conv_loc/biases/Adam_1"
        string_val: "ssd_300_vgg/block11_box/conv_cls/weights/Adam"
        string_val: "ssd_300_vgg/block11_box/conv_cls/weights/Adam_1"
        string_val: "ssd_300_vgg/block11_box/conv_cls/biases/Adam"
        string_val: "ssd_300_vgg/block11_box/conv_cls/biases/Adam_1"
      }
    }
  }
}
node {
  name: "init_ops/report_uninitialized_variables/boolean_mask/Shape"
  op: "Const"
  device: "/device:CPU:0"
  attr {
    key: "_output_shapes"
    value {
      list {
        shape {
          dim {
            size: 1
          }
        }
      }
    }
  }
  attr {
    key: "dtype"
    value {
      type: DT_INT32
    }
  }
  attr {
    key: "value"
    value {
      tensor {
        dtype: DT_INT32
        tensor_shape {
          dim {
            size: 1
          }
        }
        int_val: 216
      }
    }
  }
}
node {
  name: "init_ops/report_uninitialized_variables/boolean_mask/strided_slice/stack"
  op: "Const"
  device: "/device:CPU:0"
  attr {
    key: "_output_shapes"
    value {
      list {
        shape {
          dim {
            size: 1
          }
        }
      }
    }
  }
  attr {
    key: "dtype"
    value {
      type: DT_INT32
    }
  }
  attr {
    key: "value"
    value {
      tensor {
        dtype: DT_INT32
        tensor_shape {
          dim {
            size: 1
          }
        }
        int_val: 0
      }
    }
  }
}
node {
  name: "init_ops/report_uninitialized_variables/boolean_mask/strided_slice/stack_1"
  op: "Const"
  device: "/device:CPU:0"
  attr {
    key: "_output_shapes"
    value {
      list {
        shape {
          dim {
            size: 1
          }
        }
      }
    }
  }
  attr {
    key: "dtype"
    value {
      type: DT_INT32
    }
  }
  attr {
    key: "value"
    value {
      tensor {
        dtype: DT_INT32
        tensor_shape {
          dim {
            size: 1
          }
        }
        int_val: 1
      }
    }
  }
}
node {
  name: "init_ops/report_uninitialized_variables/boolean_mask/strided_slice/stack_2"
  op: "Const"
  device: "/device:CPU:0"
  attr {
    key: "_output_shapes"
    value {
      list {
        shape {
          dim {
            size: 1
          }
        }
      }
    }
  }
  attr {
    key: "dtype"
    value {
      type: DT_INT32
    }
  }
  attr {
    key: "value"
    value {
      tensor {
        dtype: DT_INT32
        tensor_shape {
          dim {
            size: 1
          }
        }
        int_val: 1
      }
    }
  }
}
node {
  name: "init_ops/report_uninitialized_variables/boolean_mask/strided_slice"
  op: "StridedSlice"
  input: "init_ops/report_uninitialized_variables/boolean_mask/Shape"
  input: "init_ops/report_uninitialized_variables/boolean_mask/strided_slice/stack"
  input: "init_ops/report_uninitialized_variables/boolean_mask/strided_slice/stack_1"
  input: "init_ops/report_uninitialized_variables/boolean_mask/strided_slice/stack_2"
  device: "/device:CPU:0"
  attr {
    key: "Index"
    value {
      type: DT_INT32
    }
  }
  attr {
    key: "T"
    value {
      type: DT_INT32
    }
  }
  attr {
    key: "_output_shapes"
    value {
      list {
        shape {
          dim {
            size: 1
          }
        }
      }
    }
  }
  attr {
    key: "begin_mask"
    value {
      i: 0
    }
  }
  attr {
    key: "ellipsis_mask"
    value {
      i: 0
    }
  }
  attr {
    key: "end_mask"
    value {
      i: 0
    }
  }
  attr {
    key: "new_axis_mask"
    value {
      i: 0
    }
  }
  attr {
    key: "shrink_axis_mask"
    value {
      i: 0
    }
  }
}
node {
  name: "init_ops/report_uninitialized_variables/boolean_mask/Prod/reduction_indices"
  op: "Const"
  device: "/device:CPU:0"
  attr {
    key: "_output_shapes"
    value {
      list {
        shape {
          dim {
            size: 1
          }
        }
      }
    }
  }
  attr {
    key: "dtype"
    value {
      type: DT_INT32
    }
  }
  attr {
    key: "value"
    value {
      tensor {
        dtype: DT_INT32
        tensor_shape {
          dim {
            size: 1
          }
        }
        int_val: 0
      }
    }
  }
}
node {
  name: "init_ops/report_uninitialized_variables/boolean_mask/Prod"
  op: "Prod"
  input: "init_ops/report_uninitialized_variables/boolean_mask/strided_slice"
  input: "init_ops/report_uninitialized_variables/boolean_mask/Prod/reduction_indices"
  device: "/device:CPU:0"
  attr {
    key: "T"
    value {
      type: DT_INT32
    }
  }
  attr {
    key: "Tidx"
    value {
      type: DT_INT32
    }
  }
  attr {
    key: "_output_shapes"
    value {
      list {
        shape {
        }
      }
    }
  }
  attr {
    key: "keep_dims"
    value {
      b: false
    }
  }
}
node {
  name: "init_ops/report_uninitialized_variables/boolean_mask/Shape_1"
  op: "Const"
  device: "/device:CPU:0"
  attr {
    key: "_output_shapes"
    value {
      list {
        shape {
          dim {
            size: 1
          }
        }
      }
    }
  }
  attr {
    key: "dtype"
    value {
      type: DT_INT32
    }
  }
  attr {
    key: "value"
    value {
      tensor {
        dtype: DT_INT32
        tensor_shape {
          dim {
            size: 1
          }
        }
        int_val: 216
      }
    }
  }
}
node {
  name: "init_ops/report_uninitialized_variables/boolean_mask/strided_slice_1/stack"
  op: "Const"
  device: "/device:CPU:0"
  attr {
    key: "_output_shapes"
    value {
      list {
        shape {
          dim {
            size: 1
          }
        }
      }
    }
  }
  attr {
    key: "dtype"
    value {
      type: DT_INT32
    }
  }
  attr {
    key: "value"
    value {
      tensor {
        dtype: DT_INT32
        tensor_shape {
          dim {
            size: 1
          }
        }
        int_val: 0
      }
    }
  }
}
node {
  name: "init_ops/report_uninitialized_variables/boolean_mask/strided_slice_1/stack_1"
  op: "Const"
  device: "/device:CPU:0"
  attr {
    key: "_output_shapes"
    value {
      list {
        shape {
          dim {
            size: 1
          }
        }
      }
    }
  }
  attr {
    key: "dtype"
    value {
      type: DT_INT32
    }
  }
  attr {
    key: "value"
    value {
      tensor {
        dtype: DT_INT32
        tensor_shape {
          dim {
            size: 1
          }
        }
        int_val: 0
      }
    }
  }
}
node {
  name: "init_ops/report_uninitialized_variables/boolean_mask/strided_slice_1/stack_2"
  op: "Const"
  device: "/device:CPU:0"
  attr {
    key: "_output_shapes"
    value {
      list {
        shape {
          dim {
            size: 1
          }
        }
      }
    }
  }
  attr {
    key: "dtype"
    value {
      type: DT_INT32
    }
  }
  attr {
    key: "value"
    value {
      tensor {
        dtype: DT_INT32
        tensor_shape {
          dim {
            size: 1
          }
        }
        int_val: 1
      }
    }
  }
}
node {
  name: "init_ops/report_uninitialized_variables/boolean_mask/strided_slice_1"
  op: "StridedSlice"
  input: "init_ops/report_uninitialized_variables/boolean_mask/Shape_1"
  input: "init_ops/report_uninitialized_variables/boolean_mask/strided_slice_1/stack"
  input: "init_ops/report_uninitialized_variables/boolean_mask/strided_slice_1/stack_1"
  input: "init_ops/report_uninitialized_variables/boolean_mask/strided_slice_1/stack_2"
  device: "/device:CPU:0"
  attr {
    key: "Index"
    value {
      type: DT_INT32
    }
  }
  attr {
    key: "T"
    value {
      type: DT_INT32
    }
  }
  attr {
    key: "_output_shapes"
    value {
      list {
        shape {
          dim {
          }
        }
      }
    }
  }
  attr {
    key: "begin_mask"
    value {
      i: 1
    }
  }
  attr {
    key: "ellipsis_mask"
    value {
      i: 0
    }
  }
  attr {
    key: "end_mask"
    value {
      i: 0
    }
  }
  attr {
    key: "new_axis_mask"
    value {
      i: 0
    }
  }
  attr {
    key: "shrink_axis_mask"
    value {
      i: 0
    }
  }
}
node {
  name: "init_ops/report_uninitialized_variables/boolean_mask/Shape_2"
  op: "Const"
  device: "/device:CPU:0"
  attr {
    key: "_output_shapes"
    value {
      list {
        shape {
          dim {
            size: 1
          }
        }
      }
    }
  }
  attr {
    key: "dtype"
    value {
      type: DT_INT32
    }
  }
  attr {
    key: "value"
    value {
      tensor {
        dtype: DT_INT32
        tensor_shape {
          dim {
            size: 1
          }
        }
        int_val: 216
      }
    }
  }
}
node {
  name: "init_ops/report_uninitialized_variables/boolean_mask/strided_slice_2/stack"
  op: "Const"
  device: "/device:CPU:0"
  attr {
    key: "_output_shapes"
    value {
      list {
        shape {
          dim {
            size: 1
          }
        }
      }
    }
  }
  attr {
    key: "dtype"
    value {
      type: DT_INT32
    }
  }
  attr {
    key: "value"
    value {
      tensor {
        dtype: DT_INT32
        tensor_shape {
          dim {
            size: 1
          }
        }
        int_val: 1
      }
    }
  }
}
node {
  name: "init_ops/report_uninitialized_variables/boolean_mask/strided_slice_2/stack_1"
  op: "Const"
  device: "/device:CPU:0"
  attr {
    key: "_output_shapes"
    value {
      list {
        shape {
          dim {
            size: 1
          }
        }
      }
    }
  }
  attr {
    key: "dtype"
    value {
      type: DT_INT32
    }
  }
  attr {
    key: "value"
    value {
      tensor {
        dtype: DT_INT32
        tensor_shape {
          dim {
            size: 1
          }
        }
        int_val: 0
      }
    }
  }
}
node {
  name: "init_ops/report_uninitialized_variables/boolean_mask/strided_slice_2/stack_2"
  op: "Const"
  device: "/device:CPU:0"
  attr {
    key: "_output_shapes"
    value {
      list {
        shape {
          dim {
            size: 1
          }
        }
      }
    }
  }
  attr {
    key: "dtype"
    value {
      type: DT_INT32
    }
  }
  attr {
    key: "value"
    value {
      tensor {
        dtype: DT_INT32
        tensor_shape {
          dim {
            size: 1
          }
        }
        int_val: 1
      }
    }
  }
}
node {
  name: "init_ops/report_uninitialized_variables/boolean_mask/strided_slice_2"
  op: "StridedSlice"
  input: "init_ops/report_uninitialized_variables/boolean_mask/Shape_2"
  input: "init_ops/report_uninitialized_variables/boolean_mask/strided_slice_2/stack"
  input: "init_ops/report_uninitialized_variables/boolean_mask/strided_slice_2/stack_1"
  input: "init_ops/report_uninitialized_variables/boolean_mask/strided_slice_2/stack_2"
  device: "/device:CPU:0"
  attr {
    key: "Index"
    value {
      type: DT_INT32
    }
  }
  attr {
    key: "T"
    value {
      type: DT_INT32
    }
  }
  attr {
    key: "_output_shapes"
    value {
      list {
        shape {
          dim {
          }
        }
      }
    }
  }
  attr {
    key: "begin_mask"
    value {
      i: 0
    }
  }
  attr {
    key: "ellipsis_mask"
    value {
      i: 0
    }
  }
  attr {
    key: "end_mask"
    value {
      i: 1
    }
  }
  attr {
    key: "new_axis_mask"
    value {
      i: 0
    }
  }
  attr {
    key: "shrink_axis_mask"
    value {
      i: 0
    }
  }
}
node {
  name: "init_ops/report_uninitialized_variables/boolean_mask/concat/values_1"
  op: "Pack"
  input: "init_ops/report_uninitialized_variables/boolean_mask/Prod"
  device: "/device:CPU:0"
  attr {
    key: "N"
    value {
      i: 1
    }
  }
  attr {
    key: "T"
    value {
      type: DT_INT32
    }
  }
  attr {
    key: "_output_shapes"
    value {
      list {
        shape {
          dim {
            size: 1
          }
        }
      }
    }
  }
  attr {
    key: "axis"
    value {
      i: 0
    }
  }
}
node {
  name: "init_ops/report_uninitialized_variables/boolean_mask/concat/axis"
  op: "Const"
  device: "/device:CPU:0"
  attr {
    key: "_output_shapes"
    value {
      list {
        shape {
        }
      }
    }
  }
  attr {
    key: "dtype"
    value {
      type: DT_INT32
    }
  }
  attr {
    key: "value"
    value {
      tensor {
        dtype: DT_INT32
        tensor_shape {
        }
        int_val: 0
      }
    }
  }
}
node {
  name: "init_ops/report_uninitialized_variables/boolean_mask/concat"
  op: "ConcatV2"
  input: "init_ops/report_uninitialized_variables/boolean_mask/strided_slice_1"
  input: "init_ops/report_uninitialized_variables/boolean_mask/concat/values_1"
  input: "init_ops/report_uninitialized_variables/boolean_mask/strided_slice_2"
  input: "init_ops/report_uninitialized_variables/boolean_mask/concat/axis"
  device: "/device:CPU:0"
  attr {
    key: "N"
    value {
      i: 3
    }
  }
  attr {
    key: "T"
    value {
      type: DT_INT32
    }
  }
  attr {
    key: "Tidx"
    value {
      type: DT_INT32
    }
  }
  attr {
    key: "_output_shapes"
    value {
      list {
        shape {
          dim {
            size: 1
          }
        }
      }
    }
  }
}
node {
  name: "init_ops/report_uninitialized_variables/boolean_mask/Reshape"
  op: "Reshape"
  input: "init_ops/report_uninitialized_variables/Const"
  input: "init_ops/report_uninitialized_variables/boolean_mask/concat"
  device: "/device:CPU:0"
  attr {
    key: "T"
    value {
      type: DT_STRING
    }
  }
  attr {
    key: "Tshape"
    value {
      type: DT_INT32
    }
  }
  attr {
    key: "_output_shapes"
    value {
      list {
        shape {
          dim {
            size: 216
          }
        }
      }
    }
  }
}
node {
  name: "init_ops/report_uninitialized_variables/boolean_mask/Reshape_1/shape"
  op: "Const"
  device: "/device:CPU:0"
  attr {
    key: "_output_shapes"
    value {
      list {
        shape {
          dim {
            size: 1
          }
        }
      }
    }
  }
  attr {
    key: "dtype"
    value {
      type: DT_INT32
    }
  }
  attr {
    key: "value"
    value {
      tensor {
        dtype: DT_INT32
        tensor_shape {
          dim {
            size: 1
          }
        }
        int_val: -1
      }
    }
  }
}
node {
  name: "init_ops/report_uninitialized_variables/boolean_mask/Reshape_1"
  op: "Reshape"
  input: "init_ops/report_uninitialized_variables/LogicalNot"
  input: "init_ops/report_uninitialized_variables/boolean_mask/Reshape_1/shape"
  device: "/device:CPU:0"
  attr {
    key: "T"
    value {
      type: DT_BOOL
    }
  }
  attr {
    key: "Tshape"
    value {
      type: DT_INT32
    }
  }
  attr {
    key: "_output_shapes"
    value {
      list {
        shape {
          dim {
            size: 216
          }
        }
      }
    }
  }
}
node {
  name: "init_ops/report_uninitialized_variables/boolean_mask/Where"
  op: "Where"
  input: "init_ops/report_uninitialized_variables/boolean_mask/Reshape_1"
  device: "/device:CPU:0"
  attr {
    key: "T"
    value {
      type: DT_BOOL
    }
  }
  attr {
    key: "_output_shapes"
    value {
      list {
        shape {
          dim {
            size: -1
          }
          dim {
            size: 1
          }
        }
      }
    }
  }
}
node {
  name: "init_ops/report_uninitialized_variables/boolean_mask/Squeeze"
  op: "Squeeze"
  input: "init_ops/report_uninitialized_variables/boolean_mask/Where"
  device: "/device:CPU:0"
  attr {
    key: "T"
    value {
      type: DT_INT64
    }
  }
  attr {
    key: "_output_shapes"
    value {
      list {
        shape {
          dim {
            size: -1
          }
        }
      }
    }
  }
  attr {
    key: "squeeze_dims"
    value {
      list {
        i: 1
      }
    }
  }
}
node {
  name: "init_ops/report_uninitialized_variables/boolean_mask/GatherV2/axis"
  op: "Const"
  device: "/device:CPU:0"
  attr {
    key: "_output_shapes"
    value {
      list {
        shape {
        }
      }
    }
  }
  attr {
    key: "dtype"
    value {
      type: DT_INT32
    }
  }
  attr {
    key: "value"
    value {
      tensor {
        dtype: DT_INT32
        tensor_shape {
        }
        int_val: 0
      }
    }
  }
}
node {
  name: "init_ops/report_uninitialized_variables/boolean_mask/GatherV2"
  op: "GatherV2"
  input: "init_ops/report_uninitialized_variables/boolean_mask/Reshape"
  input: "init_ops/report_uninitialized_variables/boolean_mask/Squeeze"
  input: "init_ops/report_uninitialized_variables/boolean_mask/GatherV2/axis"
  device: "/device:CPU:0"
  attr {
    key: "Taxis"
    value {
      type: DT_INT32
    }
  }
  attr {
    key: "Tindices"
    value {
      type: DT_INT64
    }
  }
  attr {
    key: "Tparams"
    value {
      type: DT_STRING
    }
  }
  attr {
    key: "_output_shapes"
    value {
      list {
        shape {
          dim {
            size: -1
          }
        }
      }
    }
  }
}
node {
  name: "init_ops/init_1"
  op: "NoOp"
}
node {
  name: "init_ops/init_all_tables"
  op: "NoOp"
}
node {
  name: "init_ops/group_deps"
  op: "NoOp"
  input: "^init_ops/init_1"
  input: "^init_ops/init_all_tables"
}
node {
  name: "train_step/GreaterEqual/y"
  op: "Const"
  attr {
    key: "_output_shapes"
    value {
      list {
        shape {
        }
      }
    }
  }
  attr {
    key: "dtype"
    value {
      type: DT_INT64
    }
  }
  attr {
    key: "value"
    value {
      tensor {
        dtype: DT_INT64
        tensor_shape {
        }
        int64_val: 40000
      }
    }
  }
}
node {
  name: "train_step/GreaterEqual"
  op: "GreaterEqual"
  input: "global_step/read"
  input: "train_step/GreaterEqual/y"
  attr {
    key: "T"
    value {
      type: DT_INT64
    }
  }
  attr {
    key: "_output_shapes"
    value {
      list {
        shape {
        }
      }
    }
  }
}
node {
  name: "train_step/FloorMod/y"
  op: "Const"
  attr {
    key: "_output_shapes"
    value {
      list {
        shape {
        }
      }
    }
  }
  attr {
    key: "dtype"
    value {
      type: DT_INT64
    }
  }
  attr {
    key: "value"
    value {
      tensor {
        dtype: DT_INT64
        tensor_shape {
        }
        int64_val: 10
      }
    }
  }
}
node {
  name: "train_step/FloorMod"
  op: "FloorMod"
  input: "global_step/read"
  input: "train_step/FloorMod/y"
  attr {
    key: "T"
    value {
      type: DT_INT64
    }
  }
  attr {
    key: "_output_shapes"
    value {
      list {
        shape {
        }
      }
    }
  }
}
node {
  name: "train_step/Equal/y"
  op: "Const"
  attr {
    key: "_output_shapes"
    value {
      list {
        shape {
        }
      }
    }
  }
  attr {
    key: "dtype"
    value {
      type: DT_INT64
    }
  }
  attr {
    key: "value"
    value {
      tensor {
        dtype: DT_INT64
        tensor_shape {
        }
        int64_val: 0
      }
    }
  }
}
node {
  name: "train_step/Equal"
  op: "Equal"
  input: "train_step/FloorMod"
  input: "train_step/Equal/y"
  attr {
    key: "T"
    value {
      type: DT_INT64
    }
  }
  attr {
    key: "_output_shapes"
    value {
      list {
        shape {
        }
      }
    }
  }
}
versions {
  producer: 27
}
